best_RoadAndFieldmodel.ckpt (torch, 516162 bytes, 21 tensors)

conv1.weight f4 [16, 3, 3, 3]
00000000: 7850 093e 5224 3fbd a6d0 0dbe ed3e 93bc
00000010: 299b 303e 2517 96bc 9a72 fcbc a7e7 223e
00000020: 9f4d 8f3d cfcd 113e c04d 173e 369e 293e
00000030: 1bef f1bd 83ec dbbc fc3e 06be 99a3 24be
00000040: ae58 3bbe ecec 2c3e 2405 1abe 88a1 d0bd
00000050: 6c0b 143e 9557 3c3d 60c2 893c 247f 32be
00000060: 7b5d 94bc 2962 d1bd 5906 cbbd fadc 12be
00000070: 53bf 76bd f83d 083d 7023 54bd 81c9 e4bd
00000080: 7b0d 1cbe b92f 453e b11b 75bd eb74 27be
00000090: 4486 ad3c bbde 293e e3e0 243e fded 513d
000000a0: b1fe 3e3d 0177 363d d191 0bbe 061a 313e
000000b0: 30ab 313e 975e e0bd ffc3 2f3e e093 22be
000000c0: 5da2 28be a009 193e bbeb f33d cbd1 24be
000000d0: 0f91 c43d 819e fdbd bdac cdbd d8f6 c8bc
000000e0: c408 353e 750a 01be 15c5 b3bd b85f 153e
000000f0: df7a 463e 9399 26bd 7801 223d fcc3 77bd
00000100: 41d2 f6bd 4afe 423e 3d6d 4abd 7ed4 e8bd
00000110: ac26 0a3e 3886 963d 80d4 383d 9c11 10be
00000120: 9c4c 2ebe 842a 3ebe 2e84 6c3d a4bd 2d3d
00000130: 2b4b bf3c 7681 073d 7087 513e 7648 37be
00000140: eb44 1e3d 2f46 063e df3b 913c bad8 4dbd
00000150: b6b2 cd3a 9a3b 34be d232 82bc 93fc b83d
00000160: 3fb4 7d3d 9c1b da3d 5b24 f23d 9243 27be
00000170: 6b61 1f3e 253d 383d f90e 2e3d 74c8 363b
00000180: 0372 c6bd 7e3c dabd 1d18 1ebe 0b47 0abe
00000190: 8cde 32be 004d 43be 3ef4 babc ae88 3cbe
000001a0: bf75 3abc 977d fb3d 72e8 ab3d f1e5 013e
000001b0: 5d1f 28bd 00ed d73d e925 8cbd 67c7 40bd
000001c0: 1f86 7f3d 8275 1ebe 7a5c 57bd d9a4 12be
000001d0: c91c da3d ded8 dd3d 2f12 193b 7d13 e43d
000001e0: 53b6 edbd 1a03 4a3c d62d 683d 4a10 193e
000001f0: d583 3b3d 6f1a c3bc f80a 67bd 1b26 563d
00000200: 980c 2b3c 4a1d ddbd 3cf4 d33d cabd a83c
00000210: 1aeb f7bd f1c4 54be e385 83bd 8f37 ccbd
00000220: 7f24 443e 6804 603c f796 10bc d476 91bd
00000230: 71dc f8bd 99b1 59bd 9b3e 2bbe 4098 a5bd
00000240: 20d1 a63d 5ccd 673d 424f a33d ca00 bebc
00000250: 113d 433e d368 e0bd d106 f93b 15e8 83bd
00000260: c08d 353e 49a5 00bd 9219 993d d675 a5ba
00000270: 5113 1f3e 3486 643d 6fe7 9cbd 9dd8 29be
00000280: b624 643d becc 9bbc c248 a23d d1b6 a8bd
00000290: b30b 2e3e f976 86bc 3c8d c73d 9946 26be
000002a0: f57b 0dbe 80b4 9a3d 496b d0bd 4f85 8f3d
000002b0: 03e8 ec3d 6f97 3dbe b6ce 573d e7f9 13be
000002c0: 92d0 a7bd 9175 2c3e 45d6 403e fcfb 003e
000002d0: f9c1 883d 739b afbc 184b 43be d4be 263e
000002e0: 7552 1f3e cbf5 0dbe d5f2 a6bd c844 b93d
000002f0: 667f 193b 4c63 123e 8951 353d 3e43 acbd
00000300: 3a2f 3ebe 29e5 333e fd5a 09be 043c 8a3d
00000310: 85f0 12be 1de4 3d3e 602b 303c a81a 0f3e
00000320: a958 203e 2348 40be 68ee 393e 05b7 9a3b
00000330: e4e5 90bb 61ea 1dbe 0ad1 913d 264f acbc
00000340: 3733 acbd ad34 1f3e 2f61 0ebe c32a aebd
00000350: 695d fcb9 5e09 c53d d728 4abe 6778 f03c
00000360: 1490 233e 2cfb 033e b2f9 9c3d 1462 cebc
00000370: b26a 0d3d 640b 653d 3b7c 2d3e 76b7 d03d
00000380: 8ee6 b53d 71dd 843d 9a07 8a3d e74b c63d
00000390: 94b9 8cbd 3251 dfbd 5bd9 cebd 3840 b4bd
000003a0: d58c 12be 587a bf3c 3263 6bbd c1b4 ea3d
000003b0: 885f 48be 1f1f fb3c dd35 07be 8a16 e33d
000003c0: 5634 09bd 09e2 1a3e 6f35 23be e8d3 86bd
000003d0: fea4 2abe c860 5d3d a6a1 1b3e dd07 2abe
000003e0: 49e3 793d 6f77 913c 7895 0dbe 707c 2b3e
000003f0: a8b2 093e dc84 40bc 6bbe 743c 7789 1c3e
0.13409603 -0.046665497 -0.13849124 -0.017974341 0.17246689 -0.018321583 -0.030816365 0.15908681
0.06997227 0.14238666 0.14775753 0.16564259 -0.11813184 -0.026846176 -0.13109964 -0.16078033
-0.18295547 0.16887254 -0.15041023 -0.1018706 0.14457482 0.045981962 0.016816318 -0.17431313
-0.018110981 -0.10223801 -0.0991332 -0.14342108 -0.060241055 0.033262223 -0.05179161 -0.11171246
-0.15239517 0.19256486 -0.05984086 -0.16353194 0.021182187 0.16588871 0.16101412 0.051252354
0.04662961 0.044547085 -0.13629843 0.17295083 0.17350459 -0.109555416 0.1716461 -0.15876722
-0.16468187 0.14945078 0.119101964 -0.16095655 0.0959798 -0.12383748 -0.10042713 -0.024531767
0.17679125 -0.12601645 -0.08777825 0.14587295 0.19382809 -0.040673804 0.039552182 -0.06048964
-0.120518215 0.19042316 -0.049420584 -0.11368655 0.13491315 0.07349819 0.04512453 -0.14069217
-0.17021412 -0.18570906 0.057743244 0.042417184 0.023351273 0.033082448 0.20461822 -0.17898735
0.038639944 0.1311271 0.017728744 -0.050255515 0.0015693519 -0.17600861 -0.015893374 0.0903255
0.061939474 0.10649797 0.118233405 -0.1633437 0.15564506 0.044980187 0.042494748 0.0027890475
-0.09689715 -0.10656069 -0.15438886 -0.13503663 -0.17467707 -0.19072342 -0.022821542 -0.18411514
-0.011380612 0.12279814 0.08393945 0.12685372 -0.041045535 0.10543251 -0.06843168 -0.047065165
0.062383767 -0.15474513 -0.052578427 -0.14320697 0.106500216 0.1083238 0.0023356786 0.111365296
-0.11607041 0.012329841 0.056684338 0.1494762 0.04578002 -0.023816315 -0.056406945 0.052282434
0.010440014 -0.10796602 0.103493184 0.020598311 -0.12105389 -0.20778252 -0.06422021 -0.099715345
0.19154547 0.0136729255 -0.008825055 -0.07102743 -0.12151421 -0.053147886 -0.16723101 -0.0808568
0.08145356 0.05659233 0.079741016 -0.023193736 0.19066264 -0.10957494 0.0075996895 -0.064407505
0.17729855 -0.03140763 0.0747558 -0.0012623619 0.15534712 0.05579205 -0.0766133 -0.16586538
0.055699073 -0.019018527 0.07924034 -0.082379945 0.1699665 -0.016414152 0.09743735 -0.16237868
-0.13816817 0.07553959 -0.10176713 0.070078485 0.1156769 -0.18514799 0.05268737 -0.14450799
-0.081940785 0.16841723 0.18831737 0.12596124 0.06677622 -0.021436429 -0.19071615 0.16283733
0.15558799 -0.13863294 -0.08151785 0.09046322 0.0023421883 0.14295691 0.04426721 -0.08411263
-0.18572703 0.17567886 -0.13413616 0.06749728 -0.14349563 0.1854405 0.010752529 0.13975012
0.15658821 -0.18777518 0.18157351 0.0047215247 -0.0044219363 -0.1542144 0.07119949 -0.021033835
-0.08408206 0.15547438 -0.1390426 -0.0850425 -0.00048134782 0.09620927 -0.19742142 0.029354287
0.1597293 0.12888783 0.07664813 -0.025193252 0.03452558 0.055919066 0.16941921 0.101912424
0.088818654 0.06487549 0.06739731 0.09682446 -0.06871334 -0.10904159 -0.10100051 -0.08801311
-0.14311536 0.023373768 -0.057467647 0.11460257 -0.19567692 0.030654488 -0.13204141 0.11088283
-0.033497177 0.15125288 -0.15938352 -0.06583387 -0.16664502 0.054047376 0.15198383 -0.16604562
0.06100777 0.017757146 -0.13826549 0.16746688 0.13447058 -0.011750426 0.014937977 0.15286814

conv1.bias f4 [16]
00000000: 9b69 503d d887 6bbb 367a d5bd 1331 b93d
00000010: f03a 133d c580 1cbd e2ed 56bc fa8d ad3d
00000020: 8795 60bd 5b9b 06be 6a1c 293e 56da 983d
00000030: e1cd ef3c 84c4 29bc 7256 fabc 75f3 59bd
0.050881963 -0.0035939123 -0.104237005 0.09042563 0.03594488 -0.03820874 -0.013118239 0.084743455
-0.0548301 -0.13145201 0.16514745 0.07463519 0.029272975 -0.010361794 -0.030558798 -0.053210694

conv2.weight f4 [32, 16, 3, 3]
00000000: c4eb bcbc 9d54 ad3d 780f 393d d32c 7a3c
00000010: ac7d 893d 822b a73c 2dd0 8e3d 1c9a acbc
00000020: 56dc 4bbd 0d1c 2cbd 485c d6bc 9293 213d
00000030: 1011 ecbc 44a6 703d a747 e33c d024 403c
00000040: 8111 84bb 1920 833d e65e ac3d 8a8e 473d
00000050: 65e0 713d dcd2 a9bc 9bd0 62bd 02ca f63c
00000060: 78e7 043c 7476 073d 9e23 e13a 3369 663d
00000070: 0bae 293d 7701 413b d14d 80bc 1b37 81bb
00000080: e59f 10bd dc47 613d 6256 a4bd d9e0 cebc
00000090: 0459 00bd 64d2 833d 0dde baba cd4b 993d
000000a0: 6dfc 8a3d b375 31ba 1866 3ebd e5e4 6cbc
000000b0: def1 b4bc 3e64 96bd 1f6c e6bc c287 9c3d
000000c0: e180 44bd 19c2 3c3b 94e5 143d cd7e 1d3b
000000d0: 6a36 9cbd d7b7 08bd c22b 383d c9d8 9a3d
000000e0: c023 393d a3d5 82bd e827 84bd c9c1 52bc
000000f0: 1fd7 85bd 8d30 9fbd cad3 413d 0e73 b63c
00000100: 9b5f 873d 578a cabc cba1 ac3c 60ce 92bd
00000110: 9fcd c0bc 7acb 5d3d 929e 57bd 4440 e3bb
00000120: 8911 523d a3c4 0bbc f8d7 3cbc 887f 51bd
00000130: e443 363d 8b29 a43d 27e0 023d 6135 9ebd
00000140: 0937 0dbd 54eb 01bc ecf4 1e3c bd8e 533c
00000150: ab56 b43b 4944 f23b fcbf 943d 5d53 aabb
00000160: 74e5 973d d02f 96bd cbb1 38bd 295b 5fbd
00000170: cf1d 03bd 246d 9c3d b96d 25bd 4f6d 71bd
00000180: b778 333c cb03 6cbd 4e54 3d3d 2856 66bb
00000190: 6d31 97bc 561d c63b 4690 91bd d8ec 0a3d
000001a0: eabf 973d 8910 61bd b4d5 9d3d bb1a 133d
000001b0: a287 963d 76aa 4f3c 0b67 d3bb 0859 253d
000001c0: 48db 6abd 0ae1 983d 9fbe 21bd 19f2 b23d
000001d0: d8a9 543d 658e 6e3b 492d 5ebd 161b 91bd
000001e0: 0229 843d 755a bf3c 00b2 9abd babc 20bd
000001f0: b51b d13c b2da 66bd a14c 11bd 93fa 75bd
00000200: e8e9 9f3d 3d94 a63d e785 ed3c d02f 9abc
00000210: 4f44 a4bd e09c dc3c 1523 233d 1287 e7ba
00000220: 5d3c 67b9 3003 8f3d dd0c 153d c616 81bd
00000230: 66b4 b03d 0341 07bd c502 a23d fedf 1c3d
00000240: 322b 78bc b20f b03d b4ea 533d b967 793d
00000250: ed5b 36bd 97d5 6d3d 4039 80bd b6f3 8b3d
00000260: 830e 8b3c d2b4 593b e61b 953c 3e46 98bc
00000270: 19c3 da39 bbe8 7f3d f59e b1bc 5a7b 43bd
00000280: 1d96 60bd fb2e f83c bac7 ac3d 557c b33d
00000290: eb20 55bd 41f2 b93c 4a87 68bd b736 473c
000002a0: 10e8 693d f106 b43d c959 323d 0c87 07bd
000002b0: 2f42 b4bc 3187 023d 3993 93bc 0843 a4bd
000002c0: da4f a63d e61b 10bd f4f9 fdba 278a ef3c
000002d0: 1b83 99bd 8409 883d f044 1bbd 8fea 02bb
000002e0: 03c9 08bc a554 55bd c280 31bd 3039 873d
000002f0: 4fbb 39bc 2232 30bd 95e1 b83d 223a 35bd
00000300: 35f6 603d aa81 a43c 40f5 b63d 458b 8f3d
00000310: bb47 903c 8454 babc 55fa a6bd 02da cd3c
00000320: 4a69 493d 15e6 a7bd 91a6 99bd b7e1 8ebd
00000330: 4298 72bd 4ff3 aa3d 9d67 66bd 59a9 f6bb
00000340: ffc5 34bb c9ce 5a3d 7060 18bc 151c 563c
00000350: 9bbf af3c b3a4 3e3c f22c 6e3d f72c 4d3d
00000360: cf75 a2bd 4f8d 623d cbce 30bd c2b4 893d
00000370: 8b66 423d 4390 b8bb 71a1 663d 8b12 8bbb
00000380: b0e4 9a3d cffa 803d 86a0 7d3d b4e5 f03b
00000390: c94a 893c 7218 68bd d9ab 69bd bd64 8cbd
000003a0: d06f fa3c 004f af3a 27d8 83bd 30f4 2db9
000003b0: de05 50bd a919 48bd 07b8 bbbd 6ce6 8f3d
000003c0: 77e3 953a 4177 883d a400 903c e41d 65bc
000003d0: e7a6 75bd 162c 933d cd70 413d 045f f43c
000003e0: 8863 af3c f5d4 283d 926f 5dbd fcd8 b13d
000003f0: 771a a7bd 1019 7abd 7ee4 2c3d 1e30 2c3c
-0.02306164 0.08463404 0.045180768 0.015269476 0.06713423 0.020406488 0.069733 -0.021069579
-0.049770676 -0.04201894 -0.02616705 0.039447375 -0.02881673 0.058752313 0.027744127 0.011727527
-0.004030407 0.064026065 0.08416538 0.04871992 0.05905189 -0.020730428 -0.055374723 0.030125622
0.008111827 0.03307195 0.0017176752 0.05625267 0.041425746 0.0029450336 -0.015662106 -0.0039433367
-0.035308737 0.05500017 -0.08024289 -0.0252537 -0.031334892 0.06436613 -0.001425685 0.07485161
0.06786428 -0.0006769553 -0.046484083 -0.01445887 -0.022087988 -0.073433384 -0.028127728 0.07643081
-0.04797447 0.0028802215 0.036351755 0.0024031878 -0.07627566 -0.03337845 0.044963606 0.0756088
0.04520011 -0.06388404 -0.06452924 -0.012863585 -0.06535172 -0.07772932 0.04732112 0.02227166
0.06610032 -0.024724169 0.021073243 -0.07168269 -0.023535548 0.05414913 -0.05264146 -0.0069351513
0.051286254 -0.008530769 -0.0115261 -0.051147014 0.04449834 0.08015736 0.03195205 -0.07725025
-0.034476314 -0.007929642 0.009701949 0.012912449 0.0055034957 0.007393394 0.072631806 -0.005197926
0.074168116 -0.07333338 -0.04509143 -0.054530296 -0.03201085 0.076380044 -0.040387843 -0.058942135
0.010954074 -0.057620805 0.046222977 -0.0035146568 -0.018456185 0.0060459776 -0.07107596 0.033917278
0.074096516 -0.05494741 0.07706776 0.035914164 0.07350089 0.012674918 -0.0064514927 0.04036811
-0.05733803 0.07464798 -0.03948843 0.08737583 0.051919788 0.0036400792 -0.054242406 -0.07085244
0.06453134 0.023358563 -0.07553482 -0.039242484 0.025525907 -0.056360908 -0.03547347 -0.06005342
0.07808286 0.08133743 0.028994514 -0.018821627 -0.08020841 0.026930273 0.03982838 -0.0017664155
-0.00022052364 0.0698303 0.03638922 -0.06303172 0.08628158 -0.033020984 0.079106845 0.038299553
-0.015147017 0.08596744 0.051737502 0.060889933 -0.04452126 0.058065023 -0.062609196 0.068335935
0.016974693 0.003321935 0.01820178 -0.018588182 0.0004172556 0.06247781 -0.021682242 -0.04772506
-0.05483066 0.03029584 0.08436532 0.08763949 -0.052033346 0.022698523 -0.056769647 0.012159041
0.057106078 0.087903865 0.043542657 -0.033087775 -0.022004215 0.03186721 -0.018014537 -0.08020598
0.08120699 -0.035182856 -0.001937686 0.02924068 -0.074957095 0.0664244 -0.03790754 -0.0019976234
-0.008348706 -0.052082676 -0.043335684 0.066027045 -0.011336162 -0.04301656 0.09027401 -0.044244893
0.0549223 0.02008136 0.089334965 0.070089854 0.017612329 -0.022745378 -0.08153216 0.025128368
0.049172677 -0.081981815 -0.07502473 -0.069766454 -0.059227236 0.08347189 -0.056251157 -0.007527512
-0.0027583835 0.053419862 -0.009300336 0.013068219 0.02145367 0.011635947 0.058148332 0.05009171
-0.079326265 0.055310544 -0.043165963 0.0672393 0.047461074 -0.0056324317 0.056306306 -0.004244154
0.0756315 0.06297838 0.061920665 0.0073516015 0.016759293 -0.056663938 -0.057048652 -0.06855152
0.030570894 0.0013374984 -0.06437712 -0.00016589533 -0.050786845 -0.048852596 -0.0916596 0.07026371
0.0011435588 0.06663371 0.01757843 -0.013984177 -0.059973624 0.07186143 0.047226716 0.029830463
0.021409765 0.041218717 -0.05406148 0.086839646 -0.08159345 -0.061059058 0.042210095 0.010509519

conv2.bias f4 [32]
00000000: b380 95bd e328 b83c 8329 1cbc 0718 a33d
00000010: 2f3f e63c a71f a6bd 0c19 c83a d468 34bd
00000020: df7c 38bd 74d6 913d 4c95 893d 2c1d 093d
00000030: ade1 233d 2090 7fbc ad4d 2bbd 8a93 a13c
00000040: cf57 2dbd 5fad 8bbd baea 6a3d a76e 3d3d
00000050: a64c a63d 34fa 65bd d5da 273d 4cb5 673d
00000060: 9f3e 593d 1168 3ebd a93f 8d3c c87b 04bd
00000070: 9545 5d3d 332b a93d 2fd4 93bb 31ba 5c3d
-0.07299938 0.022480434 -0.009531382 0.07963567 0.0281063 -0.08111506 0.0015266254 -0.044045284
-0.04504096 0.07120982 0.06717929 0.033475086 0.040010143 -0.015598327 -0.041822124 0.019723672
-0.04232007 -0.06820177 0.05735276 0.046248104 0.08120088 -0.056146815 0.04098018 0.056569383
0.053038236 -0.046485964 0.01724227 -0.03234461 0.054021437 0.08260193 -0.0045113782 0.053888503

conv3.weight f4 [64, 32, 3, 3]
00000000: 2726 5dbb a1d5 0bbd e019 653d ce10 eb3c
00000010: e830 77bc f0f2 28bd 6638 6f3d e635 07bd
00000020: 6a3c 45bc 7a6e 94bc 1027 423c 9e52 7abc
00000030: c516 8e3a 4b6a babc 7746 02bd fcb7 c63c
00000040: 30e0 9d3c 95de 1dbd ef48 0ebd 32e1 a93b
00000050: 9c22 833d a8dd 063d 7894 ee3c 20ba 0ebd
00000060: 5a8a 813d 348f 9dbc 8293 15bd 0124 a13b
00000070: 59fb 533d e115 47bc 4533 0c3c a2b2 283d
00000080: ada5 553d b80f e9bc cf76 5fbd d0e3 803d
00000090: 3237 27bd fc09 c9bc 0d9f 2cbd f010 1cbc
000000a0: 5b6c ef3b 1ebe 703c 4e31 b3bc 0fb4 e73c
000000b0: 49d9 763d 29b6 853c 1329 b8bc 0936 57bd
000000c0: d4d6 15bd 9df3 4d3c 7d25 84bc 82dd 523d
000000d0: 0727 a3bc f5ef 6d3d 731e eb3b 3786 4abd
000000e0: 6fb2 043d e1d7 35bd 0222 90bc a23b 3e3d
000000f0: 4149 acbc af45 243c 1e04 2c3d a51e 323d
00000100: 3958 063d d862 a1bc 3886 db3c cd1f 0dbd
00000110: 9bc7 5c3d fd49 60bd f3cd 413c f607 a9bc
00000120: 664f bf3b 76ad cbbb a917 563d f497 14bc
00000130: a696 e73c 93cb e8bc ce9d 6f3c d057 333d
00000140: 945d 58bd 0c45 163c 7572 163c eb55 7bbd
00000150: 0953 623d 1368 38bd 8428 293d 6be5 72bd
00000160: 4e47 59bd 746a 053d 62d5 21bd 7a21 16bd
00000170: 3a1b 2bbc ca31 bd37 7ec7 393d cd14 1dbd
00000180: a831 823c f8b1 dc3c 29da 3cbd 2d46 6c3c
00000190: 8cf6 493c 3d0c 963c 1418 16bd 925c 143d
000001a0: 5704 2c3d bf2d 173d b3a2 ba3c e96a 143d
000001b0: 10c4 de3c 9120 673d bbcc 22bd 5639 12bd
000001c0: 4af7 10bd 39fd 0bbd d8aa 0f3d 308a eabc
000001d0: 0e33 f93c c66e 4f3d 011c f43c e42a 1e3d
000001e0: ac2c 703d b459 b4bc 4f6f 5fbd 3467 543d
000001f0: fe59 9ebc e7aa 2a3c b33e 52bd 4c4b f1bc
00000200: 22b2 f23c 451b 153d 93d9 b0bc 331c 1ebc
00000210: ed7c 693b dccd 483d e207 07bd 05e4 ed3c
00000220: 1f69 68bd 214e 503d 1174 233d cb29 e33b
00000230: f6f7 823c 2601 543c 003a 043d e7cb 213d
00000240: 4217 bd3c 4398 6c3d 7502 103d 86d5 fd3c
00000250: 0ca3 6d3d 7810 8fbc 179b e8bc 5ceb 9b3c
00000260: 38a0 b13c c657 b03b 4823 43bc de0e 113d
00000270: 2313 df3c a6f4 383c f547 673d b33f 863d
00000280: bac2 c63c 4bbd 823d 63b9 173d 9c56 e93a
00000290: fcbe e23b 1d01 96bc 356c 76bd 1f4a 4abd
000002a0: cf65 4bbd 7995 40bd 1b65 9bbc 2ec2 a43c
000002b0: a481 673d 3b19 ffbb 00cd 573d 01c3 a0bc
000002c0: d437 92bc 0cd1 04bd b01d 3fbd ae27 2a3d
000002d0: 5097 b1bb 5b99 a93c 8e6c bdbc 52d6 5dbc
000002e0: 3b0e 30ba 022b 2e3b b21a b6bc a808 a539
000002f0: ade5 bfbc bcf4 20bd a0a4 7bbc e2fa 4ebd
00000300: 9db1 5e3c b1b0 833c 2e9f 4dbd 3aee a53c
00000310: 1b24 fbbc dbc7 ca3c 7cdb f93a 8249 f83c
00000320: c457 49bd f8b8 523d 7d55 67bd 4002 fc3c
00000330: 0f4e 113d 670d 56bd 8e99 49bd 6d95 37bd
00000340: 705e 9b3c 6a73 633d 90ce 49bc 9c41 d13c
00000350: ead3 023d e344 dc3c 5ea6 12bd 5be6 993d
00000360: 24c4 923d 93c6 84bb 4648 003d 5f85 61bc
00000370: 400b 873d fe86 f6bb 9671 9d3d be8c 5b3d
00000380: c60e a9bc 1d8c 13bd 119d 10bc 4545 303d
00000390: 438b 2fbd c478 803c 4e70 cc3a b1bb 65bb
000003a0: 65c5 2a3d 7eec a33c be0b 4c3d 0569 5ebc
000003b0: 9f1a 2cbd 8f39 c2bc 6e78 27bd 7b4d 4ebd
000003c0: bef1 733d 5411 1fbd f704 8fbc b70f 083d
000003d0: 9e58 713d 1b64 403d 2b5c dbbc 698d d93c
000003e0: 5bd2 8d3d 579f 723c ba08 8d3d c07e 5c3d
000003f0: a0ee b03c 5aed a8bc a892 e1bc f510 273d
-0.0033744664 -0.03413928 0.05593288 0.028694537 -0.015087344 -0.04124731 0.058403395 -0.033010386
-0.01203833 -0.018119086 0.011850134 -0.015278487 0.0010840526 -0.022755763 -0.03180548 0.024257652
0.01927194 -0.03854235 -0.034737524 0.005184316 0.064030856 0.03292623 0.02912353 -0.03484547
0.063252166 -0.019233324 -0.036517628 0.004917622 0.051753376 -0.012151212 0.0085571455 0.041185983
0.052159954 -0.028449878 -0.054556664 0.06293452 -0.040824123 -0.024540894 -0.04214387 -0.009525523
0.007306618 0.014693765 -0.021874096 0.0282841 0.060265813 0.016322212 -0.022480523 -0.052541766
-0.03658183 0.012570289 -0.016131157 0.051480778 -0.01991607 0.05809017 0.0071752607 -0.049444403
0.03239673 -0.04439533 -0.017594341 0.04644359 -0.021031024 0.0100263795 0.041996114 0.043486256
0.03279898 -0.019700453 0.026797399 -0.034454156 0.053901296 -0.05475806 0.011828887 -0.020633679
0.0058383225 -0.0062157465 0.052268658 -0.009069432 0.028270077 -0.028417384 0.014625026 0.043784916
-0.052823618 0.0091717355 0.009182562 -0.061361235 0.05525497 -0.045021128 0.041298404 -0.05930082
-0.053046517 0.032572225 -0.03951014 -0.03665302 -0.010443503 2.255374e-05 0.045356266 -0.038349915
0.015892819 0.02694033 -0.04610649 0.014421028 0.012326848 0.018316383 -0.036644056 0.036221094
0.041996326 0.03690886 0.02278266 0.03623477 0.0271931 0.056427542 -0.039746027 -0.03569921
-0.035392083 -0.03417704 0.03507504 -0.028630346 0.030419853 0.05064275 0.02979851 0.038615122
0.058636352 -0.02201543 -0.05454951 0.051856235 -0.019330021 0.010416723 -0.051329326 -0.02945485
0.029625956 0.03640296 -0.021588122 -0.009650278 0.003562744 0.049024448 -0.032966502 0.029039392
-0.056740876 0.05085576 0.03990561 0.0069324723 0.015987378 0.012939727 0.032281876 0.039501097
0.02308238 0.057762396 0.035158593 0.030985605 0.05801682 -0.017463908 -0.028394265 0.019033127
0.021682844 0.005381557 -0.011910267 0.03541457 0.027230805 0.0112887975 0.056465108 0.065551184
0.024262775 0.06383761 0.037042033 0.0017802301 0.00691974 -0.018311078 -0.060161788 -0.049387094
-0.04965764 -0.04701755 -0.01896911 0.020112123 0.05652012 -0.00778499 0.052685738 -0.019624235
-0.017848887 -0.032425925 -0.04665917 0.041541748 -0.005419649 0.020703008 -0.023123052 -0.0135398675
-0.00067159877 0.0026575928 -0.022229526 0.00031477702 -0.023424948 -0.039295897 -0.015359074 -0.05053223
0.013592151 0.016075464 -0.050200634 0.020255197 -0.030656865 0.024753502 0.0019062604 0.030308489
-0.049155965 0.05144593 -0.056478012 0.030762792 0.035474833 -0.052258875 -0.049218707 -0.044820238
0.01896593 0.05552999 -0.012317315 0.02554398 0.03194038 0.026888316 -0.03580319 0.0751464
0.07166317 -0.004051992 0.031318925 -0.013764708 0.06593943 -0.0075234165 0.076876804 0.05360102
-0.020636927 -0.036022294 -0.00882651 0.04303481 -0.04285742 0.015682586 0.0015597434 -0.00350545
0.041692156 0.02001023 0.049815886 -0.013574843 -0.042017575 -0.023709087 -0.040886335 -0.05036686
0.059556715 -0.038834885 -0.017458422 0.03321811 0.058922403 0.046970468 -0.026777348 0.026556687
0.06924888 0.014808497 0.0688643 0.053831816 0.02159816 -0.02062099 -0.027535751 0.040787656

conv3.bias f4 [64]
00000000: 5452 48bd a885 47bd 4f6d 063c cc61 7d3d
00000010: eb48 493d f322 003c df36 973b d7c5 33bd
00000020: 5777 813d 897b 8cbc 4a3f 18bc e6f8 47bd
00000030: b5b5 7d3c ccaa 81bc d893 963b 81d3 3b3d
00000040: f90f 583d f369 efbc 61d8 8bbc ad3a 4ebc
00000050: 5453 6fbb f361 4e3d d869 633c 0166 b7bb
00000060: fb39 dfbc 1791 013d 240b 58bd 4247 db3c
00000070: 0b48 8fbc 4dd4 173d 1fa6 95bb 3a7a fe3c
00000080: 9876 133d 8da0 843d bc49 803d 8363 773d
00000090: 2141 e0bc 90ac 0fbb e004 223d 923b 60bb
000000a0: ed77 18bc f88b 793d 920c fabc 34e4 d1bc
000000b0: bf13 a7bc a289 fe3c d287 07bc 19ba eb3b
000000c0: 2ec7 773d 2b11 20bd ab69 53bd db25 10bd
000000d0: e3ab b73b 60ae e2bc 2782 963a 9673 e33c
000000e0: 8ee9 673d 3631 793d b80e 6e3d 7b46 e2bc
000000f0: 2b65 433d ec23 093d eaf8 9d3c 7a3f 483d
-0.04890664 -0.04871145 0.008204772 0.061860844 0.049141806 0.007820833 0.0046146954 -0.043889847
0.063215904 -0.01714875 -0.009292433 -0.048821352 0.015485217 -0.015828513 0.004595261 0.045856003
0.052749608 -0.029225325 -0.017070951 -0.012587232 -0.0036518173 0.05038638 0.013880216 -0.0055968766
-0.027249327 0.03163251 -0.052745 0.026767377 -0.017490407 0.0370677 -0.0045669223 0.031064142
0.03600177 0.06475935 0.06264064 0.060397636 -0.027374806 -0.0021922924 0.03955543 -0.0034215194
-0.009305936 0.0609245 -0.030523572 -0.025621511 -0.020395158 0.031071488 -0.008272128 0.0071938154
0.060492687 -0.039078873 -0.051614445 -0.03519235 0.0056052073 -0.02767104 0.001148288 0.027765077
0.05661922 0.060837947 0.058119506 -0.027621498 0.047703903 0.033481523 0.01928373 0.04888866

head.1.weight f4 [1, 18496]
00000000: 894d 023c 2d72 383c c0b2 e13a 85f1 0abc
00000010: add1 53bb 9d01 003b ca86 11bc 3646 d3bb
00000020: 08a9 6fbc e9ea 16bb 044e 3cbc f071 17bb
00000030: 656a 54bc 1bb8 eb3b 8314 48bb fe9f debb
00000040: dfd7 75ba 8145 333b ec97 5f3c c421 68bb
00000050: 9bf1 1e3c bcf4 a03b 171c b2bb eeeb a2bb
00000060: c97e 12bb 5bf0 c6bb 2f5a 15bb 6d16 abba
00000070: 0593 7c3b 90e7 76bb 522c 2bbb 797a 523b
00000080: 1da0 523b efe3 c9ba 868d fa3b 9f11 e13b
00000090: 531a 3f3c b9b2 463c c0cc 4c3b e4b1 5b3b
000000a0: 76a8 b4bb 8179 9c39 d24b 043c e300 4c3b
000000b0: b324 cb3a 11e4 de3b bd73 223c f9d1 7f3b
000000c0: e2b3 e9ba fb6b aab9 fa1e cbbb ef29 e0bb
000000d0: 6851 c93b 9f4f 0a3c c702 053c b2d9 24ba
000000e0: 80f5 70bb fb90 f9ba a9b6 3d3a 77e2 c3bb
000000f0: b7d2 12bc c270 b7bb 0d44 5dbc b0cf b93a
00000100: 2556 98bb 95d5 a03b ee03 45ba 47c3 233c
00000110: 09e9 353c ac95 423b fbf2 59bb 963b 8e3b
00000120: b890 c13b cfee 013a fa1c 98ba f9bd 01bc
00000130: 74fe 66bc bdc6 66bc f8de 41bc 5b2d 89bc
00000140: b36a 15bc e623 1cbc d012 babb 7c21 22bb
00000150: f6c8 05bc dc94 463c ced5 b0ba e17b 1b3c
00000160: a0ff af3c 113f 473c cfa8 193c 4bc7 b83a
00000170: 0c09 daba 4c25 f13a 27a1 97bb 84c5 f93b
00000180: 4a8d 9cbb be47 ea3b f613 bd3a a317 07bc
00000190: 1f0e 92bb 9d82 dbbb 8b1a aaba 2504 5f3c
000001a0: bbef 573c d365 ef3b ba96 073b 5cd1 4b3b
000001b0: 9111 8c3c 62f9 f3b9 cba3 adbb a8fc 83bb
000001c0: 3563 53bb 5503 cfbb 50e7 e5bb 38c3 49bb
000001d0: c95f 0dba 460a 36bc f8d1 113c a46a 50bb
000001e0: f1bc 3e3b bf42 e1bb 7cff fdbb aa1d e9bb
000001f0: 981f 72bb cd97 cfbb 3ede b43b 71e8 9fb9
00000200: ae7b 02bb a076 6b3b f622 0b3b 1cc3 1a3b
00000210: f628 a4bb c558 74bc a1c5 323a 817a 143c
00000220: c377 a6bb 41d0 063a 88d8 e9bb 9efb 143c
00000230: 193c 82bc b36b 89bb 2282 93ba cb74 b6bb
00000240: 403d fc3b c251 e9bb c931 103c c399 f43a
00000250: e8c9 6e3b a6d9 0abc e0ec 2abc b73c af3b
00000260: a6cc f43b f4f9 85bb ae10 85bb 7f8b 76bb
00000270: 2458 4abb 61fb 90bb a785 27ba aca4 31bc
00000280: 9c76 223b e37a 9d3a 85d7 8b3b 41ae 45bb
00000290: 84fb be3b ade0 0fba aa49 33bb 84f2 a4bb
000002a0: a533 acbb edd5 d5bb 43b3 27bb 1862 9bbb
000002b0: a6a9 c6bb 513d d2bb 44f3 23bc 2ef3 91bc
000002c0: ca2f 95bb 37a4 dc3a 76ea 113c 30c7 0cbc
000002d0: c36a 0abb 0def 30bc 7f2c d5ba b222 17bc
000002e0: 4c11 f9bb 738d 97bc a05d abbb ac6b 8fbb
000002f0: bb5a 4eba 1ef3 8bbb 4dda bbbb 6d2c 6c3b
00000300: 3aed 80bc 9928 0939 0a27 cb3b c4e4 8e3a
00000310: 064c 873b 30b9 87bc bc12 19bc c1e7 88bb
00000320: 3967 41bc f030 9ebb f238 ecbb 25f9 b4bc
00000330: 2258 ce3b 9bf6 49bc 1461 1cbc 8e6e df3b
00000340: a43e f8bb 12c3 66bc 4119 14bc c4d6 55bb
00000350: 8421 b33b 31a9 cd3a 9552 4fbc 4fce 75bc
00000360: 7d84 39bc c076 5b3a 5b79 c5b9 3d2d 7fbc
00000370: 816a 6bbc 4758 4dbc ee49 eabb b3e2 f4bb
00000380: 9b07 9d3a 9532 32bc 9e33 323b 8300 01bc
00000390: 0c95 2d3b cd58 ff3a 89c6 feb9 c289 8bbc
000003a0: 4c5a 77bc 6901 2d3b 5631 4fbb e720 95bc
000003b0: 3e01 d8bb 5022 56bb 11c3 9d3a e7de 2bbb
000003c0: 07b8 ba3a e4eb ed3b 6bc0 81bc ef88 fbbb
000003d0: 864c d2bb 9bd5 2a3c 489d 6aba de8e 52bc
000003e0: 3f74 44bc 1e62 7abb cd3d 2ebc 9934 85bc
000003f0: 8b2f 14bc 1723 82bb 3f59 80bc fb1f 5dbc
0.007953056 0.01125769 0.0017219409 -0.008480434 -0.0032321021 0.0019532212 -0.008882234 -0.006447579
-0.0146277025 -0.00230282 -0.01149321 -0.0023108684 -0.01296482 0.007193578 -0.0030529804 -0.006793975
-0.00093781756 0.002735466 0.013647061 -0.0035420517 0.009701158 0.004911987 -0.0054354775 -0.0049719727
-0.0022353402 -0.006071133 -0.002278935 -0.0013052948 0.003853978 -0.0037674643 -0.0026118946 0.0032116456
0.0032138892 -0.0015403013 0.0076462654 0.0068685557 0.011663991 0.012127572 0.003124997 0.003352278
-0.005513246 0.00029845166 0.008074718 0.0031128458 0.0015498608 0.00680209 0.0099152895 0.0039035066
-0.0017830099 -0.00032505378 -0.006198761 -0.0068409364 0.0061437376 0.008441835 0.008118338 -0.00062885426
-0.0036767423 -0.00190404 0.00072369963 -0.0059779244 -0.008961371 -0.0055981586 -0.013504994 0.0014176276
-0.004648941 0.0049082735 -0.0007515539 0.009995288 0.011102923 0.0029691262 -0.00332564 0.0043405993
0.0059071444 0.0004956545 -0.0011605315 -0.007918828 -0.014098752 -0.014085469 -0.011832945 -0.01674526
-0.009119677 -0.009530043 -0.005678512 -0.0024739197 -0.008165589 0.012120452 -0.0013491453 0.009489984
0.021484196 0.012161032 0.009378626 0.001409748 -0.0016634776 0.0018397956 -0.004627365 0.0076224227
-0.004777585 0.0071496656 0.0014425504 -0.0082453815 -0.00445725 -0.00669892 -0.0012977881 0.013611828
0.013179715 0.0073058396 0.0020689205 0.003110013 0.01709822 -0.00046534376 -0.0052990667 -0.0040279217
-0.0032255177 -0.006317536 -0.0070161 -0.0030786525 -0.0005392996 -0.011110848 0.008900158 -0.0031801844
0.0029104317 -0.006874412 -0.0077514034 -0.007114132 -0.00369451 -0.0063352347 0.0055196574 -0.00030500026
-0.0019910145 0.003592886 0.0021230555 0.002361483 -0.0050097657 -0.014913742 0.000681961 0.00906241
-0.0050801947 0.00051427266 -0.0071364082 0.009093193 -0.015897797 -0.004193747 -0.0011253993 -0.005568122
0.0076977313 -0.007120342 0.008800932 0.0018661547 0.0036436263 -0.008474743 -0.010432452 0.005347814
0.007470685 -0.0040886346 -0.0040608263 -0.0037619767 -0.003087529 -0.004424498 -0.000639046 -0.0108424835
0.0024789935 0.0012014773 0.0042676353 -0.0030163678 0.005828323 -0.00054884964 -0.002735714 -0.005033793
-0.00525518 -0.006525746 -0.0025589026 -0.0047419183 -0.006062704 -0.006416001 -0.0100067295 -0.017816152
-0.004552816 0.0016833608 0.0089059975 -0.008592412 -0.0021120764 -0.010799182 -0.0016263871 -0.009224581
-0.007600939 -0.018500065 -0.005229667 -0.004376849 -0.0007871796 -0.004270925 -0.0057328106 0.0036037222
-0.015738118 0.00013080462 0.006199722 0.0010901918 0.0041289357 -0.016567796 -0.0093428455 -0.004178018
-0.011804395 -0.004827611 -0.007208937 -0.022091458 0.0062971273 -0.012326862 -0.00954463 0.006818599
-0.0075758267 -0.014084594 -0.009039224 -0.003262923 0.005466642 0.0015690682 -0.012653966 -0.015002801
-0.011323092 0.0008371882 -0.00037665185 -0.0155747505 -0.014368654 -0.012533254 -0.0071499264 -0.0074733137
0.0011980416 -0.0108763175 0.002719141 -0.007873657 0.0026486544 0.0019481421 -0.00048594575 -0.017033461
-0.015097212 0.0026398546 -0.00316151 -0.018204166 -0.006591945 -0.003267426 0.0012036284 -0.002622539
0.0014245518 0.0072607864 -0.015838822 -0.007676236 -0.0064178137 0.010426904 -0.00089498283 -0.012851445
-0.011990606 -0.0038205455 -0.010634852 -0.016260432 -0.009044538 -0.003971468 -0.015667556 -0.013496394

exp_avg f4 [16, 3, 3, 3]
00000000: a0b3 86bd 260e 8bbd c905 84bd 727f 68bd
00000010: f9a8 80bd 9d6b 64bd e695 4cbd 5c30 65bd
00000020: b5ac 70bd a25e 7dbd 5374 82bd 8481 7bbd
00000030: c76f 54bd 39b7 6ebd 3d32 57bd f288 34bd
00000040: e210 50bd b925 64bd b2f0 55bd a44b 52bd
00000050: 3bed 4abd e926 2dbd 48b3 38bd f632 21bd
00000060: 516c 12bd a2f4 1dbd bf5a 31bd 8d0e f6bd
00000070: 3002 13be ef34 11be 228d f5bd 77d0 0fbe
00000080: 704a 0dbe c766 f8bd db59 0abe aa48 02be
00000090: b0f2 dcbd e676 08be 07f7 06be 7515 ddbd
000000a0: 49ee 04be 7e56 02be 9f76 e1bd dd06 00be
000000b0: 79d6 eebd 9452 a8bd 93d3 dbbd 62b3 dabd
000000c0: 86da a6bd 6197 d3bd 3097 d0bd e524 aebd
000000d0: b818 cdbd 3487 bdbd 7b5c 8abd 4808 9ebd
000000e0: 5803 d2bd 5fa3 99bd 1200 a5bd 99c3 cfbd
000000f0: 7c89 b0bd f37e aabd ed42 c1bd 40a5 70bd
00000100: fcd2 8bbd ba3b c0bd 90ab 86bd fc2f 91bd
00000110: 2e32 bcbd f40a 9ebd 80b2 95bd 8c80 aabd
00000120: 06bf 65bd fa91 7cbd 5498 acbd d64e 86bd
00000130: 7147 89bd e15c aebd 969a a3bd 0dc0 93bd
00000140: edb4 a2bd a324 63bc 83cb 00bc 4620 36bc
00000150: 0856 5fbc eafd 09bc fbdc 55bc 2317 45bc
00000160: 1682 31bc fa39 6bbc 7043 1abc ee4e 70bb
00000170: e056 eabb 9fee 0abc 2526 61bb 0800 0cbc
00000180: 5a31 d3bb e0f4 b2bb 7ffe 19bc 32b1 febb
00000190: d98c 23bb a882 b2bb 1820 fabb 1852 40bb
000001a0: c16e f4bb 2e46 e1bb 7149 cabb c4f2 1cbc
000001b0: 70af fdbb 0171 6cbc 1367 54bc 345c e7bb
000001c0: f16b 52bc ea1f 42bc 8258 13bc 6fb8 1abc
000001d0: b0f7 3dbc bec9 25bc d094 8cbc 949e 78bc
000001e0: 2029 12bc 210c 79bc 9195 64bc 2b0b 31bc
000001f0: c119 3dbc c903 63bc cebf e3bb 83f4 65bc
00000200: b560 4dbc 063b a7bb 15e9 31bc 2352 22bc
00000210: e70d dabb 2a21 d6bb 425d 15bc 6aca bf3c
00000220: dd26 7d3c 45b2 a93c a9e4 b13c fbdd 8f3c
00000230: 55f9 be3c 4a8c c73c 42e7 ba3c 1a6a af3c
00000240: bc3f 0f3d 1058 db3c acf5 033d ca2a 083d
00000250: db43 ed3c 4e4f 0f3d 121d 113d ff84 0a3d
00000260: b370 053d 1315 533d 46f3 323d b7e0 443d
00000270: 66c7 493d cc97 3a3d f8b2 4f3d f5cc 513d
00000280: 098e 4b3d dcc9 423d 8e52 33be 6278 2bbe
00000290: 0822 1fbe 4d67 31be 8724 2cbe 59ab 1abe
000002a0: 5b03 28be 8e4d 2cbe 7a38 22be fafb 1abe
000002b0: cdd2 12be 77d4 06be 334a 18be c8d2 12be
000002c0: d082 01be 0cdd 0ebe ad97 13be 81d4 09be
000002d0: e630 28be f617 21be 334c 16be 07ad 27be
000002e0: 6120 23be c986 12be 5668 1fbe 25a9 25be
000002f0: c702 1dbe a2e8 debd a878 e9bd 1e14 e9bd
00000300: 3a86 d0bd 3960 debd 9031 e2bd 17b6 d0bd
00000310: d542 d0bd ff4b debd 9452 dcbd eacb e6bd
00000320: b4d3 e5bd 4248 cdbd e5eb dbbd 3a44 dfbd
00000330: b35a cdbd af87 cdbd 241f dcbd 8d53 c9bd
00000340: 877a d0bd 7a5d d1bd 303a b9bd 60d5 c3bd
00000350: 71f5 c8bd b610 bbbd 668f b7bd ff1d c7bd
00000360: d461 54be aa36 57be bc57 51be 764f 4bbe
00000370: 63bc 4bbe 955c 4ebe bd94 48be fa31 4bbe
00000380: 7126 4bbe ca35 45be 297e 47be 17a7 41be
00000390: 088c 3bbe ac4b 3bbe 1c61 3ebe a191 38be
000003a0: 6c96 3abe 7e27 3bbe 5a3d 4fbe 9a71 4fbe
000003b0: 5ac7 47be b991 45be 7815 43be b50d 44be
000003c0: e4e4 42be 61dc 42be f4bd 40be a669 f23d
000003d0: b869 e93d 2930 ed3d c89e f03d d51b e43d
000003e0: 77dc e73d 7426 e93d e59e e33d 0715 e93d
000003f0: 3a87 d23d 8903 cc3d c8c5 cf3d 3a9a d13d
-0.065772295 -0.06789808 -0.06446416 -0.056762166 -0.06282229 -0.05576669 -0.04994764 -0.055954322
-0.058758456 -0.061857827 -0.06369843 -0.061402813 -0.05186441 -0.058280203 -0.052538145 -0.044075914
-0.05079735 -0.055700038 -0.052231498 -0.051341668 -0.049542647 -0.042273436 -0.04509285 -0.03935524
-0.03574783 -0.03856338 -0.043299433 -0.12014494 -0.14356303 -0.14180349 -0.119898096 -0.14044367
-0.13797927 -0.12128978 -0.1351084 -0.12723032 -0.107884765 -0.13326606 -0.13180171 -0.10795108
-0.12981524 -0.12728307 -0.11008953 -0.12502618 -0.11662001 -0.082188755 -0.10733714 -0.10678746
-0.08147149 -0.103316076 -0.10185087 -0.08503131 -0.1001448 -0.092543036 -0.067559205 -0.07716423
-0.10254544 -0.07501864 -0.08056654 -0.10144729 -0.08619973 -0.08324995 -0.09436593 -0.058751345
-0.068273515 -0.09386392 -0.06575692 -0.070892304 -0.091892585 -0.07716933 -0.07309437 -0.083252996
-0.056090377 -0.06166265 -0.08427492 -0.065580055 -0.067030795 -0.08513809 -0.07988469 -0.07214365
-0.07944665 -0.013863715 -0.007861021 -0.011116093 -0.013631351 -0.008422354 -0.013053174 -0.012029442
-0.010834238 -0.014357084 -0.009415492 -0.003666814 -0.0071514696 -0.008479743 -0.0034355011 -0.008544929
-0.006445092 -0.0054613203 -0.0093990555 -0.007772588 -0.0024955778 -0.0054477043 -0.0076332204 -0.0029345807
-0.007459492 -0.006874821 -0.0061733057 -0.009579364 -0.007741861 -0.014431239 -0.012964028 -0.007060552
-0.012843118 -0.011848429 -0.00899327 -0.009443386 -0.011594698 -0.0101189 -0.017160803 -0.015174527
-0.008920938 -0.015200646 -0.013951675 -0.010805885 -0.011541785 -0.013855883 -0.006950355 -0.014035347
-0.012535264 -0.0051034717 -0.010858794 -0.009907278 -0.0066544893 -0.006534715 -0.009116473 0.023411948
0.01545116 0.020714888 0.021715479 0.017561903 0.02331225 0.024358887 0.02281535 0.021412898
0.03497289 0.02677539 0.032216713 0.03324393 0.02896302 0.03498774 0.035428114 0.03381824
0.03257818 0.05153377 0.043689035 0.048065867 0.049262427 0.04555492 0.050707787 0.051220853
0.049696002 0.04755579 -0.17511961 -0.16745141 -0.15540326 -0.17324562 -0.16810809 -0.15104426
-0.1640753 -0.1682646 -0.15841857 -0.15135184 -0.14338227 -0.13166986 -0.14872055 -0.14338219
-0.12647557 -0.1395151 -0.14413328 -0.1345997 -0.16424903 -0.15731797 -0.14677505 -0.16374598
-0.1593032 -0.14309229 -0.15567145 -0.16177805 -0.1533309 -0.10884215 -0.113999665 -0.1138079
-0.10181852 -0.10858197 -0.110446095 -0.10190981 -0.10168997 -0.10854339 -0.10757938 -0.11269362
-0.1122202 -0.10023548 -0.10738353 -0.10901685 -0.10027065 -0.10035645 -0.10748127 -0.09830389
-0.1017962 -0.10222907 -0.090443015 -0.095621824 -0.09812439 -0.09134047 -0.08962898 -0.09722518
-0.20740443 -0.21016946 -0.20443624 -0.1985453 -0.19896083 -0.20152505 -0.19587989 -0.19843283
-0.19838883 -0.192588 -0.1948172 -0.18911396 -0.18315136 -0.18290585 -0.18591732 -0.18024303
-0.18221444 -0.18276784 -0.20238248 -0.2025818 -0.1950964 -0.1929387 -0.19051158 -0.19145854
-0.19032627 -0.1902938 -0.18822461 0.11836557 0.113971174 0.115814514 0.11749035 0.11138121
0.11321347 0.113842875 0.11114291 0.11380964 0.10279699 0.09961612 0.10145146 0.102344945

exp_avg_sq f4 [16, 3, 3, 3]
00000000: 7357 a63c cb46 a43c 8bb6 943c 53ff 813c
00000010: 65f1 973c 317b 853c c6d7 533c a8c7 833c
00000020: cc06 963c 2932 5c3c 6b35 613c b779 543c
00000030: afe1 273c b277 4a3c 791e 353c 9aa1 083c
00000040: 6f43 2e3c 6531 4e3c abe2 a83b a06d a93b
00000050: 2d67 a43b d592 773b 989e 8c3b e106 733b
00000060: 6482 463b 5c78 693b 545d 8b3b a52a 0d3d
00000070: cfdd 383d c404 3c3d ac86 053d f24f 243d
00000080: 3127 243d c979 0e3d a1a3 223d fe08 143d
00000090: 4e02 213d f197 4f3d 6509 523d e335 193d
000000a0: e407 3b3d 3984 3a3d 6c05 223d 76da 383d
000000b0: 2d49 293d 5b21 0c3d d5ab 303d 3d24 313d
000000c0: 8be1 043d 6b35 223d 7c2c 223d a8ef 093d
000000d0: a55f 1e3d 94a2 133d 6390 383c e813 693c
000000e0: 638b b63c 59b3 4a3c fdbf 623c 9195 a73c
000000f0: 8594 913c 7459 803c 60c0 8a3c 8492 d03b
00000100: 13f3 043c 4ccc 623c 6d39 f33b c3e2 073c
00000110: 8ef2 523c b45b 2f3c 4d45 183c 30d5 293c
00000120: 46dd 1f3b 9f08 4c3b d62b c33b ba78 553b
00000130: 8938 6d3b 64d8 c03b 4abb a33b 5ca8 8a3b
00000140: 6fbd a23b b521 363b 5019 0a3b d9ba 153b
00000150: 9c90 243b 0658 fe3a 436c 163b 7758 403b
00000160: bd86 353b 07c4 433b b947 973a f02c 523a
00000170: 35db 743a 74e4 883a 766b 3d3a d80b 713a
00000180: 0497 a63a 3b70 963a da4a a13a db25 3039
00000190: 6e3b e638 d11e f638 0e67 3d39 541a f738
000001a0: fdc0 1c39 96fa 8a39 9154 8239 f90a 8d39
000001b0: 5c0b 773a 9fb1 bb3a af61 833a d7a9 113a
000001c0: ae08 713a 391c 493a 94c9 223a c51b 123a
000001d0: 05bc 643a 5913 3e3a b675 883a ce05 4b3a
000001e0: 89d4 073a 3291 483a 21e8 2b3a 0da5 133a
000001f0: 2de8 073a 9801 3a3a 4212 a738 1acb 0139
00000200: 143c c638 3efb 6338 6b90 9538 5fc2 9038
00000210: 5fc3 6638 3823 6c38 f349 9638 df42 f33b
00000220: 8e46 eb3b 81af de3b 3d4b de3b 6df0 d73b
00000230: bc4d cd3b 23d9 c23b 816b c43b 1b30 c63b
00000240: 00ad 453c 5de0 3f3c 7abe 393c 8594 373c
00000250: f305 343c eff1 2e3c eeed 243c 0f35 253c
00000260: 54b8 263c 74a5 823c fd63 813c f160 7f3c
00000270: 82f5 723c 3a9d 713c 05e7 6e3c b3d4 5d3c
00000280: 4dda 5e3c cba3 603c 9e43 2b3d 2ff9 203d
00000290: 9a67 123d f8a8 253d 21ee 1d3d a0e8 083d
000002a0: b26d 1b3d 25c2 263d 8090 193d 6522 1a3d
000002b0: b7fd 103d 7baf 033d 7f6d 153d 4ea3 0e3d
000002c0: 7e01 f83c 71de 0b3d b149 163d ed7d 0b3d
000002d0: f33e 293d cb5b 203d 5965 133d ca2b 273d
000002e0: 66fa 203d cb7b 0f3d 509e 1d3d 62c7 263d
000002f0: 8286 1e3d cd3a db3c c7e6 ec3c e7de e43c
00000300: 3eb7 c43c 2404 dc3c f7ef db3c 6f28 cc3c
00000310: a247 cb3c 7efd e13c b58d be3c f053 cd3c
00000320: 69b9 c93c c396 ad3c 7ea6 bf3c 550a c13c
00000330: b396 b33c 3124 b23c ae6b c53c c031 a83c
00000340: 7aa3 b03c 6e70 b23c 534e 9a3c e12e a43c
00000350: 0b26 a93c dcf7 9f3c 3454 9c3c d0e4 ac3c
00000360: 394e 8b3d 4d28 8f3d 2b3b 893d 147b 803d
00000370: 9cf9 813d 3466 853d cb74 803d b783 833d
00000380: de34 833d 36fb 833d e851 873d b8c0 813d
00000390: 8798 723d 58f6 733d 493a 7b3d 2180 713d
000003a0: fa6a 763d dc94 763d d093 8f3d 9dc6 903d
000003b0: db65 8a3d 1992 853d cd87 843d 0c43 863d
000003c0: 13ed 843d 34fe 853d 5ca0 833d e7ad c83c
000003d0: a51b c03c 76d7 c13c 3226 d33c f025 c63c
000003e0: 74d7 c73c efb8 cb3c 7cf7 c73c 7bb5 cb3c
000003f0: cd56 ba3c 381e b33c b111 b43c a44b c43c
0.02030537 0.020053288 0.01815345 0.015868818 0.018547723 0.016294094 0.012929862 0.016086414
0.018313788 0.0134396935 0.013745646 0.012968472 0.010246678 0.012357639 0.0110546285 0.00833931
0.010636195 0.012585019 0.005153974 0.005170539 0.0050171823 0.0037776728 0.004291367 0.0037082958
0.0030290121 0.0035624718 0.004253069 0.034464497 0.04513341 0.045902982 0.032599136 0.040115304
0.04007644 0.034784112 0.03970683 0.036141388 0.03930884 0.050682012 0.05127849 0.037404906
0.045661822 0.045536254 0.039555952 0.045130216 0.04132955 0.034211498 0.04313262 0.04324745
0.032441657 0.039601725 0.039593205 0.03367582 0.038665432 0.03604372 0.011264893 0.014225937
0.022283262 0.012371861 0.013839719 0.020457061 0.017771015 0.015667655 0.016937435 0.0063651223
0.008114594 0.0138426535 0.007422617 0.00829381 0.012875212 0.010703016 0.009293866 0.010365769
0.0024393364 0.0031133068 0.0059561534 0.003257318 0.0036197028 0.005885171 0.004996692 0.004231496
0.00496643 0.0027791087 0.0021072216 0.0022846966 0.0025110608 0.0019404895 0.0022952713 0.0029349604
0.0027698718 0.002987148 0.0011541761 0.00080175605 0.0009340526 0.0010444061 0.0007225791 0.0009195185
0.0012709801 0.0011477539 0.0012305633 0.0001679877 0.00010978324 0.00011735934 0.00018062835 0.00011782782
0.00014949213 0.00026508112 0.0002485854 0.0002690179 0.0009423995 0.0014319903 0.0010023619 0.0005556619
0.0009194714 0.0007671747 0.0006209847 0.0005573596 0.0008725527 0.0007250808 0.0010411057 0.00077447004
0.00051815115 0.00076510303 0.0006557722 0.00056321995 0.0005184438 0.00070955744 7.966581e-05 0.0001237806
9.452566e-05 5.4355005e-05 7.1317736e-05 6.9026595e-05 5.5018227e-05 5.6299585e-05 7.1663315e-05 0.007423743
0.0071800416 0.006795824 0.0067838714 0.0065899403 0.00626537 0.005946295 0.005994261 0.006048215
0.012065172 0.011711207 0.011336917 0.011204843 0.0109877465 0.010677799 0.0100664925 0.010083451
0.010175783 0.015948035 0.015794748 0.0155870775 0.014829041 0.014746958 0.014581447 0.013539481
0.013601852 0.013710926 0.04181253 0.03930014 0.035743333 0.040444344 0.038557176 0.033424973
0.03794641 0.040712494 0.03749132 0.037630457 0.03539821 0.032149773 0.036481377 0.03482371
0.030274149 0.034147684 0.03669137 0.03405564 0.0413198 0.03915004 0.035985325 0.040813245
0.0393013 0.035030168 0.038481057 0.04071749 0.038702495 0.026761437 0.028918637 0.02793832
0.024013158 0.026857443 0.026847823 0.024921624 0.02481443 0.027586695 0.02326093 0.025064439
0.024624543 0.021190053 0.02339482 0.023564497 0.021922445 0.021745773 0.024099197 0.020531535
0.021562327 0.021782126 0.018836176 0.020041885 0.020648023 0.019527368 0.01908312 0.0211052
0.06802029 0.06990109 0.067007385 0.06273475 0.06346437 0.06513634 0.062722765 0.06421607
0.06406568 0.06444399 0.06607419 0.06335586 0.059227493 0.059561104 0.061334882 0.058960084
0.060160615 0.060200557 0.07010615 0.070691325 0.06757709 0.065220065 0.064712144 0.06555757
0.06490531 0.06542626 0.064270705 0.024496986 0.023450682 0.02366231 0.025775049 0.024188012
0.024394728 0.024868457 0.024410002 0.02486681 0.022746468 0.021864995 0.021981092 0.02396185

exp_avg f4 [16]
00000000: 846d 81bd 1cf6 0cbe ef5b b0bd 334f b0bc
00000010: 0d6f 9fbc ff52 0abd dc5b 20be fbdc 92bd
00000020: 9be0 f8bd 7583 c53d bf9f 9bbb 61f4 9abd
00000030: af1f e5bd ee11 e0ba 3ef8 1a3c 93c6 aebd
-0.063197166 -0.13765758 -0.08611285 -0.02152214 -0.019462133 -0.033770557 -0.15660042 -0.07171055
-0.12152215 0.09644214 -0.004749268 -0.07566143 -0.11187684 -0.0017095187 0.0094586 -0.08533969

exp_avg_sq f4 [16]
00000000: c3bc c13c f934 593d 75ce 813c 76a8 883b
00000010: 6024 363b ed38 9a3b 56b9 373d c0e6 793c
00000020: af04 133d 8f4e 3e3c 48ab 093c fbbb 4c3c
00000030: b1f6 873c c5f9 a33a b7fb e93a a492 b43b
0.023649579 0.053029034 0.015845517 0.0041704727 0.0027792677 0.004706493 0.044854484 0.015252769
0.03589314 0.0116154095 0.008402653 0.01249599 0.016597124 0.001251035 0.0017851506 0.005510645

exp_avg f4 [32, 16, 3, 3]
00000000: 06a0 5abb e8e6 6dbb d91a 4cbb be19 81bb
00000010: 2c0a 80bb ee69 76bb 33c5 4fbb d51e 51bb
00000020: 75e0 71bb 7ff5 6dbb 136d a3bb 376a 8abb
00000030: 5f29 76bb 6498 aabb 665b 84bb febd 88bb
00000040: 6120 7cbb 3afc 4cbb 7569 02bc 4f12 00bc
00000050: 07e9 ecbb 7d44 d7bb 7305 e5bb f7bd a6bb
00000060: 0e18 03bc 764a cdbb cb5c 92bb 3f81 55bb
00000070: fd90 36bb 6e01 2dbb 4326 f4ba cf5e b3ba
00000080: c33f 09bb 1ad6 03bb 18ff bdba 5316 1fbb
00000090: 6f08 55ba eadb aeba ecd7 a1ba 5479 75ba
000000a0: 9c79 c9ba 5a67 b7ba e238 42ba b98a 81ba
000000b0: 77ac aaba 91af c8bb 9c8f dbbb 8916 edbb
000000c0: a023 e0bb 6e0c f7bb 5848 11bc f8b3 b6bb
000000d0: 3b8c e8bb 13ad fabb c892 2bbd 065e 32bd
000000e0: 802b 3abd fd6b 21bd aeb2 27bd cf80 3abd
000000f0: aee2 1bbd 5397 2dbd e022 33bd ea21 b0bc
00000100: 7014 b8bc d6be a6bc 2773 b2bc 6c32 b2bc
00000110: 37e0 a4bc cb53 b5bc 4e34 a2bc f93c a0bc
00000120: 6650 70bd 859f 73bd 9119 76bd c12a 6dbd
00000130: 75f1 75bd 3bcd 76bd 0786 67bd 0d2b 6dbd
00000140: 3712 6cbd aeea 0dbe 5ffb 12be 19c0 14be
00000150: 29cb 09be 80c6 0dbe 2d98 0ebe 5ec5 07be
00000160: 8888 0bbe efe3 07be 4379 17bb f683 0abb
00000170: bf0c 8eba 95eb 1bbb ba51 82ba 643b a2ba
00000180: 114d d5ba 3a51 45ba d0df 01bb 7a6c dbbb
00000190: bd7e debb b3d9 06bc 3605 e9bb 92c5 0dbc
000001a0: b8d0 37bc c2b0 b0bb 7d01 0bbc bf32 18bc
000001b0: c024 cbbb 13c2 c9bb 03bc 16bc 3ee2 93bb
000001c0: e350 a4bb a2d0 1dbc 9c08 88bb 8f3a f7bb
000001d0: 0dc0 1cbc 63ee dcb9 b145 dbb8 0526 a1b9
000001e0: 23ef d3b8 b5c8 c938 0145 a4b9 adb7 ecb7
000001f0: 8f4f cc38 dcf9 a4b9 440f 79bc d350 7cbc
00000200: 279a 7cbc bbc6 7ebc 84c3 7ebc bce9 80bc
00000210: ae18 6ebc dd6f 6fbc 6de0 79bc 4ab6 07bc
00000220: 8aa3 08bc 5e61 27bc a842 0cbc fc46 1bbc
00000230: 4ae4 41bc da3d 0dbc b6c1 3dbc 21a3 41bc
00000240: 9895 9dba 1fa5 cbba cabe b5ba f9b0 c5ba
00000250: 30e0 0dbb 0010 08bb 5091 c2ba 3a3d 07bb
00000260: 91d7 e7ba 7fda 96ba bfd7 c8ba 01c0 13ba
00000270: 931e 88ba ae9a 9aba 1680 56ba 63e0 0bba
00000280: 5312 59ba 0e62 50ba fd78 57bb 02b8 f9ba
00000290: f4cb 9cba 08d0 31bb c2d9 83ba 17f5 c6ba
000002a0: d77f e8ba b0fb d6ba 3ceb 02bb a316 20ba
000002b0: b218 8fb9 4bf3 37ba 5423 aab9 ac83 b0b9
000002c0: 8b2a 6bba bfb1 05ba 1c84 0aba c3d5 2dba
000002d0: 2bd4 a6b9 68b2 2fba d6d4 00ba 4b9b 4bba
000002e0: f4ee 5bba e608 12ba 5db6 25ba ddbb 39ba
000002f0: 0be1 2eba a9bf 87ba a1d8 ddba 3aa6 d1ba
00000300: 0656 bfba 3d6b 12bb aa00 05bb 2e4d ccba
00000310: fabd edba c7d9 b6ba e124 d0bb df17 07bc
00000320: 3d4c 05bc 3749 dabb c78d fdbb d16d 01bc
00000330: 0e24 c5bb a995 eebb f9a0 e2bb 3784 95bb
00000340: 5b84 8cbb 525f 80bb 065c 90bb 40ea 8dbb
00000350: a84b 8cbb fe66 95bb 8dac 90bb 3c47 8cbb
00000360: 4017 2dbc f7ce 44bc 81af 34bc 846e 33bc
00000370: aad4 46bc 5888 39bc 3c5a 2ebc 0839 39bc
00000380: 3465 2fbc d5ba cabc 56bd d7bc a565 d3bc
00000390: 2f76 c1bc 72b4 c3bc e1b8 c1bc 692d a9bc
000003a0: 8891 abbc 5ee7 afbc d816 23b9 2ffe 00b9
000003b0: c88e c9b9 984a 8cb9 49ef 30ba bda9 60ba
000003c0: a749 03ba b5c7 5eba 3da7 25ba 380e 90ba
000003d0: 989f 01bb d18a 15bb 7258 0ebb 42d9 4dbb
000003e0: ea32 44bb 4da7 25bb 8b3d 45bb e910 38bb
000003f0: f232 16b9 7d73 b1ba 2bea faba 03b2 82b9
-0.0033359542 -0.003630096 -0.0031143932 -0.0039398363 -0.0039074626 -0.003759976 -0.0031703233 -0.0031909246
-0.0036907468 -0.0036309657 -0.004987368 -0.0042240876 -0.003756128 -0.0052061547 -0.004039216 -0.0041730395
-0.0038471448 -0.0031278268 -0.007959713 -0.007816865 -0.0072299275 -0.0065694437 -0.006989175 -0.0050885635
-0.008001341 -0.00626498 -0.004466628 -0.0032578257 -0.0027857416 -0.0026398557 -0.0018627126 -0.0013684871
-0.0020942546 -0.0020116628 -0.001449558 -0.002427478 -0.0008126562 -0.0013340686 -0.0012347675 -0.00093640876
-0.0015371325 -0.0013992593 -0.0007408989 -0.0009883262 -0.0013021369 -0.006124445 -0.006700469 -0.0072353524
-0.0068401843 -0.0075393235 -0.008867346 -0.005575653 -0.007096795 -0.0076500266 -0.04188803 -0.0435467
-0.04545164 -0.039409626 -0.040941887 -0.045532998 -0.038057975 -0.042380642 -0.04373443 -0.021500546
-0.022470683 -0.02035467 -0.021783425 -0.021752559 -0.020126445 -0.022134682 -0.019800331 -0.019560324
-0.058670424 -0.0594783 -0.060082976 -0.0579021 -0.060044724 -0.060254317 -0.056524303 -0.057902385
-0.05763456 -0.13859054 -0.14353703 -0.14526404 -0.13456406 -0.13845253 -0.13925238 -0.13258883
-0.13626301 -0.13270544 -0.002311305 -0.0021135784 -0.0010837539 -0.002379154 -0.0009942569 -0.0012377319
-0.0016273578 -0.00075270573 -0.001981724 -0.006696281 -0.0067900107 -0.0082306145 -0.007111217 -0.008653061
-0.011219196 -0.005392165 -0.008484242 -0.009289443 -0.0061994493 -0.0061571687 -0.009200099 -0.004513054
-0.0050145253 -0.0096322615 -0.004151417 -0.0075448225 -0.009567273 -0.00042139282 -0.00010455715 -0.0003073664
-0.00010105807 9.6218115e-05 -0.0003133193 -2.8218923e-05 9.742297e-05 -0.00031466677 -0.0152013935 -0.015400129
-0.015417612 -0.015550311 -0.015549544 -0.015736453 -0.014532251 -0.014614073 -0.015251261 -0.008283207
-0.008339772 -0.010216085 -0.008560814 -0.009477373 -0.0118342135 -0.008620704 -0.011581829 -0.011818678
-0.0012022732 -0.0015536881 -0.0013866064 -0.0015082649 -0.0021648519 -0.002076149 -0.0014844332 -0.002063586
-0.0017688145 -0.0011509209 -0.0015323086 -0.0005636216 -0.0010385088 -0.0011795366 -0.00081825384 -0.00053358654
-0.00082806236 -0.00079491816 -0.003287851 -0.0019052031 -0.0011962638 -0.0027132053 -0.0010059404 -0.0015179244
-0.0017738295 -0.0016401913 -0.0019976636 -0.0006106889 -0.00027293485 -0.00070171495 -0.00032451248 -0.0003366744
-0.0008970878 -0.00051000336 -0.0005283968 -0.0006631279 -0.00031820065 -0.0006702305 -0.00049145275 -0.0007766976
-0.0008389794 -0.0005570784 -0.0006321425 -0.0007085184 -0.0006671107 -0.0010356802 -0.0016925522 -0.0015994974
-0.001459778 -0.002234175 -0.0020294585 -0.0015586966 -0.0018138282 -0.0013950401 -0.0063520526 -0.008245437
-0.008135852 -0.00666156 -0.0077378484 -0.007899717 -0.006016261 -0.0072810245 -0.006916162 -0.0045628804
-0.004288239 -0.003917613 -0.0044055013 -0.0043309033 -0.00428148 -0.0045593968 -0.004415101 -0.0042809527
-0.010564625 -0.012012235 -0.0110281715 -0.010951642 -0.012135664 -0.011324011 -0.010641631 -0.011305101
-0.010705281 -0.024747292 -0.0263354 -0.025805304 -0.023615925 -0.023889754 -0.023647727 -0.020651536
-0.020943418 -0.02147263 -0.00015553401 -0.00012301722 -0.00038444088 -0.00026758458 -0.00067495235 -0.0008570215
-0.00050082285 -0.00084983866 -0.0006319171 -0.0010990566 -0.0019778963 -0.0022818337 -0.0021720198 -0.0031410013
-0.0029937574 -0.002527672 -0.0030096497 -0.002808625 -0.00014324093 -0.0013538447 -0.0019143274 -0.0002492816
