best_RoadAndFieldmodel.ckpt (torch, 516162 bytes, 21 tensors)

conv1.weight f4 [16, 3, 3, 3]
000000 d7 ec 8b bd 35 dd e2 3d 8e fa f7 bb 02 42 23 be
       -0.06832283 0.11077348 -0.0075677102 -0.15943149
000010 38 a8 04 3d 5d 95 51 be 5d ef fa 3d 99 9a ae 3d
       0.03238699 -0.20467134 0.12252686 0.08525581
000020 6c 23 b6 bd d8 c1 48 be 5a b1 45 be d5 db 15 3d
       -0.08893475 -0.19605196 -0.19305936 0.0365866
000030 fb 35 d0 bd 31 f5 83 3d 8d c2 26 3d b8 f4 fc 3d
       -0.10166546 0.06443251 0.04071288 0.12351364
000040 d7 85 d8 3d d8 bc f7 bd 05 6b a2 3d bf 89 22 3e
       0.10572403 -0.12096566 0.079305686 0.15872858
000050 0a 13 20 be 7f 90 0a 3e 54 c8 fa 3d 8c bd 0b 3e
       -0.15632263 0.13531683 0.12245241 0.13646525
000060 ac 09 0c 3e aa 21 4c 3d 99 b0 12 be 92 b9 41 3d
       0.13675565 0.049836792 -0.14325179 0.047296114
000070 ef 58 f7 bd 62 f1 19 3d 99 61 72 bd 35 71 22 be
       -0.120775096 0.037583716 -0.059175108 -0.15863498
000080 95 76 d8 bd a9 3b 19 bd bc 60 3b be bd 52 e7 3d
       -0.10569493 -0.037410412 -0.1829862 0.11295078
000090 a6 71 08 3d f6 ed f7 bd 73 15 68 3d 81 6b 2d be
       0.03331151 -0.12105934 0.05666108 -0.1693554
0000a0 57 f8 d2 bc f1 a4 0a bd 28 40 1c 3e 9a 82 f4 3d
       -0.025753183 -0.033848707 0.15258849 0.11938973
0000b0 75 7f 47 be 56 0b cb 3d a6 b8 f9 3a 87 b2 12 3d
       -0.19482215 0.099142715 0.0019052222 0.03581479
0000c0 9b db 0c be bf 05 09 3e 06 cf 46 3d 01 27 3d be
       -0.13755648 0.13381098 0.048537277 -0.1847191
0000d0 ac d1 db 3d 01 0d 95 3c b2 29 28 3d 57 4e 22 be
       0.10733351 0.018194677 0.04105539 -0.15850197
0000e0 68 42 eb 3d 12 36 81 bb dd 0f dc 3d b1 71 86 3d
       0.11487275 -0.0039432133 0.10745213 0.06564654
0000f0 4c 86 a8 3a 01 5c 1a 3e 9b 7a f7 bd 5d 63 11 3d
       0.0012857406 0.15074159 -0.12083932 0.03549515
000100 b1 a3 f5 3d 1d 39 fb 3c 97 d6 11 be d2 ad 09 bd
       0.11994112 0.030666882 -0.14242016 -0.033613034
000110 fa d7 ae bd 4a bf e3 3d 24 c2 47 be 25 61 2a bd
       -0.08537288 0.1112047 -0.19507653 -0.04159655
000120 17 cf 1b be 89 90 68 be 89 ae 12 be ee ae 81 bd
       -0.15215717 -0.22711386 -0.14324392 -0.06332193
000130 27 17 8c be 2a 78 82 be 78 2f 0e 3e de e1 76 be
       -0.27361414 -0.25482303 0.13885295 -0.24109599
000140 8b fa 25 3c 3c 25 25 be 9c 3f 8e 3d bf 1b 9e bd
       0.010130535 -0.16127485 0.06945726 -0.07720136
000150 ff b4 c7 3c 86 3a 8d 3d 05 80 59 3d 50 c2 16 3e
       0.024378298 0.06895928 0.053100605 0.14722562
000160 5f 1d e3 bd 34 40 6f 3c d9 60 08 bd 24 d3 b0 bd
       -0.110895865 0.01460271 -0.033295486 -0.08634022
000170 82 dd 25 3e 31 ec 29 be 17 6e ec bd 17 a5 2b 3e
       0.1619778 -0.16594006 -0.115444355 0.16762196
000180 66 7d eb 3d a4 14 35 be 7e f3 9d bd d5 09 10 3e
       0.11498527 -0.17683655 -0.07712458 0.1406625
000190 66 96 76 bd 99 76 5c bd 33 28 95 3b 07 a9 5a be
       -0.060202025 -0.05382404 0.0045519113 -0.21353541
0001a0 a9 15 08 bd e7 93 20 3e 21 89 04 bd 82 3e 14 3d
       -0.03322378 0.1568142 -0.03235734 0.036192425
0001b0 d5 74 26 be 32 1a 4e 3d 76 3c 72 bc 9e a3 4e be
       -0.16255505 0.05031795 -0.014784923 -0.20179603
0001c0 87 cf 37 be ce 54 1f 3d 77 51 b3 3c f8 80 4d bd
       -0.17950259 0.038899235 0.021889431 -0.050171822
0001d0 b1 d5 3f 3e 76 b3 cd 3d d9 d0 d2 bd f8 de 54 3e
       0.1873386 0.10043995 -0.10293741 0.20788181
0001e0 52 fd 42 3e 61 d5 f8 3d 35 7f a9 bd 87 7e 27 be
       0.19041947 0.12150074 -0.08276216 -0.1635686
0001f0 6d 3e 45 3e c4 27 3e bd 20 a8 71 3d 18 1d f9 bd
       0.19262095 -0.046424642 0.058998227 -0.12163752
000200 ea c6 29 be aa ea 53 be dc 3f 8b 3b ce d1 42 3e
       -0.16579786 -0.20694986 0.004249556 0.19025347
000210 e7 63 17 3c d5 dd ab 3d 20 04 b0 bd ac 7c 1d be
       0.009240127 0.083919205 -0.08594537 -0.1537959
000220 36 83 11 bd cc 2b de bd 19 49 d3 bd 44 0e e5 bd
       -0.035525523 -0.10848197 -0.10316677 -0.111843616
000230 e4 90 9b 3d da b7 62 3d 6c 97 26 3d fd 0f 40 be
       0.07595995 0.055351116 0.04067175 -0.18756099
000240 f4 30 a9 3d e2 99 30 be 62 a4 01 3e 5e d5 99 3d
       0.0826129 -0.17246202 0.12660363 0.075114
000250 c9 07 ba bb 0d a7 47 be 4e ca a6 3d b7 1b 0f 3e
       -0.0056771976 -0.19497319 0.08144055 0.13975416
000260 c6 66 24 be 38 4b 37 bc 0a b9 55 3d 54 f8 18 be
       -0.1605483 -0.011187367 0.05217842 -0.1493848
000270 ce 04 b0 bd 45 1d f6 bc d4 2f ab 3d a4 e0 01 be
       -0.085946664 -0.030043254 0.08358732 -0.1268335
000280 59 34 1c 3e b6 2e 34 be 4a 10 2a be 51 d6 72 bc
       0.15254344 -0.17595944 -0.16607776 -0.014821605
000290 f4 b0 86 3d 41 8c 6b bd a2 36 20 3e 46 32 34 3d
       0.0657672 -0.057506803 0.15645841 0.043993257
0002a0 7c 50 2b 3e 2b a7 b8 3d 60 74 05 3d 31 ad 0f be
       0.16729921 0.0901626 0.032581687 -0.14030911
0002b0 cd 2f d7 bd d3 d4 a6 3d e4 30 b7 bc 12 c8 38 be
       -0.10507164 0.08146062 -0.02236218 -0.18045071
0002c0 cb ac 14 3e 9f c5 7d bd eb b4 33 3e 42 d1 c9 3d
       0.1451904 -0.061956044 0.17549483 0.09854366
0002d0 27 86 1a 3e 5e 01 02 be 2c 16 64 bd 56 e7 6e be
       0.15090238 -0.12695834 -0.055685207 -0.23330435
0002e0 67 cb 43 be 2e ee a5 3d b2 43 00 be e1 d8 82 bd
       -0.1912056 0.0810207 -0.12525824 -0.063890226
0002f0 af 98 45 bd 32 e0 40 be d0 7f da bd 23 e4 eb bd
       -0.048241314 -0.18835524 -0.106689095 -0.11518123
000300 9c 0f 3f be 83 4d ef 3d a5 7c 1a 3d cc 35 2f be
       -0.18658298 0.11684706 0.037716527 -0.17110366
000310 07 0f 2c be 41 10 33 be 47 11 47 be fa 2e 80 bd
       -0.16802607 -0.17486669 -0.19440185 -0.0625896
000320 7d 3f 07 be df 24 b2 3d 88 59 92 bd 9a 42 ce bc
       -0.13207813 0.08698439 -0.07145983 -0.025178242
000330 1c d0 57 3d 22 da a5 3d 4f 94 00 be 98 a1 d2 3d
       0.052688703 0.08098246 -0.12556575 0.10284728
000340 47 2e 40 be b6 c4 f0 bc 20 ec 80 bd cd ac 0e be
       -0.18767653 -0.029390674 -0.06295037 -0.13933106
000350 f0 0b 08 3e 9c 3e 2e 3e 98 21 7c bd 02 99 8c bd
       0.13285804 0.17016071 -0.061555475 -0.068651214
000360 4e f3 99 3d 06 bb 28 be e3 3e 38 be 20 74 2e 3d
       0.0751711 -0.16477594 -0.1799274 0.042591214
000370 be 7b e1 3d e4 22 32 3e d4 18 b9 bd 3c 5c ec 3d
       0.1100993 0.17396122 -0.09037939 0.1154103
000380 85 4c 9a 3d 0b 96 52 be cf 8b e6 3d 1a e1 2d 3d
       0.07534126 -0.2056505 0.11257135 0.042451
000390 65 59 a3 3d 0e 02 5b be 4b d8 40 be a9 28 cc 3d
       0.07976035 -0.21387503 -0.18832509 0.09968693
0003a0 aa 7e 55 be 57 8d 8a bd 95 7e e1 bc e4 c1 0a 3c
       -0.208491 -0.0676524 -0.02752618 0.008469079
0003b0 82 f0 0e 3c 5a 9c 66 be 42 39 fd bd ae a8 1c 3e
       0.008724334 -0.22520581 -0.12364437 0.15298721
0003c0 8f 11 f2 bd c4 5d e1 bd 18 8f fe bd 96 2d 39 3e
       -0.11819755 -0.110042125 -0.12429637 0.18083796
0003d0 e7 cf 30 3e f0 72 f1 bd 57 f3 17 3e c6 91 2d 3e
       0.17266808 -0.11789501 0.1483892 0.1695014
0003e0 e0 ef 71 bd 3f 81 37 3d 6a bf a0 bd 76 c8 44 be
       -0.059066653 0.044800993 -0.07849009 -0.19217095
0003f0 ee b0 02 be 05 ae 46 3e 70 a8 e4 3d 6f 29 a9 3d
       -0.12762806 0.1940232 0.111649394 0.08259856

conv1.bias f4 [16]
000000 d1 08 f5 3d 95 b2 d4 3c 94 ac 44 3e 57 2f ca bc
       0.11964572 0.02596406 0.19206458 -0.024680777
000010 ab 4b f8 bd 18 2f 53 3e 96 82 1c 3e a9 8f b9 bc
       -0.121238075 0.20623434 0.1528419 -0.02265151
000020 7e 22 25 be 9b 37 89 bd 1f 52 6e bd 5b d7 03 3e
       -0.16126439 -0.06700059 -0.058183786 0.1287512
000030 ac a5 c2 bd 10 f7 a2 3d 7e 23 3c be 1f 1b a4 bd
       -0.09504256 0.0795728 -0.18372914 -0.080129854

conv2.weight f4 [32, 16, 3, 3]
000000 00 de bd bd b1 7f 5a bd df 0a f3 bc 18 4c bf bd
       -0.09270859 -0.053344432 -0.02966827 -0.093406856
000010 d0 13 82 3c fc 79 8d 3d 06 cb ea bd 8e b6 cb 3c
       0.015878588 0.06908032 -0.11464505 0.024867322
000020 0d 51 f5 3b ce 2b c0 bd 7f cb e2 bc 4c 51 9c bd
       0.0074864686 -0.09383355 -0.027684925 -0.07632694
000030 93 46 12 bc 5b e5 5d bd 90 04 bc bd d3 4d 4b bd
       -0.008927959 -0.05417381 -0.09180558 -0.049634766
000040 e1 16 18 bd f8 59 b6 bd 7c ab 91 3d 2e a4 30 3c
       -0.037131194 -0.08903879 0.07112786 0.010781331
000050 cd 02 a5 bd 67 14 bf bd 39 71 cb bd 71 cc bd bd
       -0.08057175 -0.09330063 -0.09933705 -0.0926751
000060 57 dc f1 bd ce 77 ac bd ef 2a 90 bd 5a 06 51 bd
       -0.118096046 -0.084212884 -0.07039439 -0.051031448
000070 45 da dc bd ac 26 32 ba c0 4c 0a bd 75 ef 02 be
       -0.10783819 -0.00067959237 -0.0337646 -0.12786658
000080 d3 11 74 3d 9d dc 6c bd 0b 8f 13 bd 8c 7d a6 bb
       0.05958731 -0.05782758 -0.03602509 -0.0050808843
000090 7b 67 35 3d 25 d3 04 bc ed 31 e6 bc eb 27 e1 3d
       0.04428814 -0.008106981 -0.028099978 0.10993942
0000a0 00 0f 5d 3d 95 22 6b bd fa 79 12 3e 2d cc 73 3b
       0.053969383 -0.057406027 0.14304343 0.0037200556
0000b0 04 5d 88 3d 04 78 9e bd 55 55 b1 bd fe 33 9a bd
       0.06658366 -0.07737735 -0.08658854 -0.07529448
0000c0 ab af be bd a7 ce a5 bc d8 b8 ca bb ed 0a d4 bd
       -0.0931085 -0.020240141 -0.006186586 -0.103536464
0000d0 ab d2 37 be 6e d2 76 bd fd bd 34 3c d2 6d 83 bd
       -0.17951457 -0.060259275 0.011031625 -0.06417431
0000e0 d0 e9 b3 bc a6 f7 b8 bd a0 21 d5 bc f2 22 cb bd
       -0.021962076 -0.0903161 -0.02601701 -0.09918775
0000f0 28 d8 c7 bd 86 4c c2 bc bb 51 d2 3c 03 7d c8 bc
       -0.097580254 -0.02371813 0.025673738 -0.024473673
000100 81 1c 03 3d 18 c0 19 3d 8b 18 d4 bd 47 06 4c 3d
       0.032009605 0.03753671 -0.10356244 0.049810674
000110 4f 03 9c bc 4f dd d8 bd 13 80 20 3d eb ea ad 3c
       -0.019044546 -0.10589086 0.03918464 0.021230182
000120 6f 9c 17 3d bc 81 e1 3b 53 b1 24 bd 18 8e 88 bb
       0.03701442 0.0068819206 -0.040208172 -0.0041673295
000130 81 2c 3f bd c5 0d e9 bd 26 06 71 bb 21 9e 7c 3d
       -0.0466733 -0.113795795 -0.0036777346 0.06167424
000140 66 b1 91 bb 98 84 61 bd 8f fe b8 bd e9 2d de bc
       -0.0044461964 -0.055058092 -0.09032928 -0.027121501
000150 1a 39 28 bc 85 e8 b4 bd eb d9 cf 3c 12 d9 33 3d
       -0.01026752 -0.08833412 0.025372466 0.043908186
000160 1a ab 88 bc 58 24 36 bd 8b 3b 5b bd 97 78 84 bd
       -0.01668315 -0.044468254 -0.05352358 -0.06468313
000170 24 7e 28 bb 42 6e db 3c fe 83 b0 bd 81 f2 0c 3d
       -0.0025709951 0.026785973 -0.086189255 0.034410957
000180 8b e6 b2 bd e3 92 10 3d a9 78 10 3d 61 11 22 3b
       -0.08735379 0.035296332 0.03527132 0.0024729597
000190 76 c7 2b bd 2e 93 06 3d fc 27 24 3d 34 f9 71 3d
       -0.041938268 0.032855205 0.040077195 0.05907555
0001a0 6a ff 43 bd 88 a7 41 3d 85 fe b6 bc b3 3e e8 bc
       -0.047851004 0.04727891 -0.022338161 -0.02835021
0001b0 e6 b7 85 3d d8 5e b0 bc 42 d3 87 bd 9e 9d 2c bd
       0.065292165 -0.0215296 -0.06632091 -0.042142503
0001c0 d6 6f e2 b9 c4 1b 1a 3d 75 27 c9 3c 1f 70 4f 3d
       -0.00043189403 0.037624136 0.024554947 0.050644036
0001d0 52 ed 53 bc b8 92 48 bd 7c a6 20 3b d6 fb d5 bb
       -0.012935 -0.048968047 0.0024513295 -0.0065302653
0001e0 37 4f e2 bd 0d 29 61 3b 89 b6 64 bd 87 52 94 bd
       -0.11050265 0.0034356744 -0.05583814 -0.07242303
0001f0 68 91 a0 3c 36 94 0f bc 37 75 97 bd a5 8b 2b bd
       0.019600585 -0.008763364 -0.07395404 -0.041881222
000200 9f e8 e0 3c 82 0c 59 bc 94 78 3f bd 03 12 06 bd
       0.027454672 -0.013247611 -0.04674585 -0.03273202
000210 92 ee 5e 3c 4e 48 4e 3d b3 6b 39 3d e9 b6 85 3d
       0.013606684 0.050361924 0.045268726 0.06529028
000220 0f a3 0a bd 53 26 96 3d cb 8d 2e bd 8f 83 5e bc
       -0.03384691 0.073315285 -0.042615693 -0.013581171
000230 9c df 15 3d a9 87 65 3c 6f 1d 8a bd 2e b0 7a bd
       0.036590204 0.014009395 -0.06743895 -0.061203174
000240 1c c2 6e bc a1 e0 88 3c b1 70 81 3c f3 9f 8c bd
       -0.0145726465 0.016708674 0.015800806 -0.068664454
000250 30 55 3c bd ea 48 03 3b 70 8f 92 3d 05 96 72 3d
       -0.04597968 0.0020032474 0.07156265 0.0592251
000260 a8 7d b2 3c 76 e2 89 3d 8c 9c 6d bd 2c e7 6a 3c
       0.021788433 0.06732647 -0.058010623 0.014337342
000270 35 aa 8c 3d 97 e5 be bd c8 5d b1 3c 55 f3 5d 3d
       0.06868402 -0.093211345 0.021651164 0.054187138
000280 6b eb 7d bc 59 56 85 bc 7e c7 32 bc 64 fc 90 ba
       -0.015498023 -0.016276525 -0.01091182 -0.0011061546
000290 4a 12 1f 3c d5 f1 48 3d 76 89 b3 3d c0 66 f1 3d
       0.00970895 0.049058754 0.08766453 0.11787176
0002a0 47 cf cc 3d 32 2e ce bc 72 db e2 3c 22 6f 66 b9
       0.100004725 -0.025168512 0.02769253 -0.0002197591
0002b0 cc e5 91 3c 52 91 14 bd 2e 0d 99 3c a0 97 48 3a
       0.017809771 -0.0362714 0.018683042 0.00076519884
0002c0 a1 e6 0b bc 9a 1d 80 3d 79 47 d4 3d c6 d8 81 3c
       -0.008538873 0.06255646 0.10365195 0.015850436
0002d0 96 d7 79 3d 4c d5 9e 3d 55 07 5f bc 92 9a ac 3d
       0.060996614 0.07755527 -0.013612588 0.084279194
0002e0 70 ec 1d 3d 1c 31 5c 3d 42 fa bf 3b 31 0c b3 3d
       0.038555562 0.05375777 0.0058586905 0.0874256
0002f0 10 2c 18 bd fe bb 4f bc e4 71 49 bd b5 65 56 3d
       -0.037151396 -0.012679098 -0.04918088 0.05234309
000300 9a e1 1e 3d 20 2a 03 bd 40 e2 ef bc e7 27 1d bc
       0.03878937 -0.032022595 -0.02928269 -0.009592033
000310 55 31 83 bd 60 7e 4c 3d dc d0 05 3d c0 22 1d 3d
       -0.06405894 0.049925208 0.032669887 0.03836322
000320 c4 25 1a 3c f4 4e 7b 3c 9a d1 8c 3d 64 2e 3a 3d
       0.009408418 0.015338648 0.06875916 0.045454398
000330 d0 7d 69 3d 74 71 b6 3c 5d 7e b8 3d a6 d2 c9 bd
       0.05700475 0.022270896 0.09008477 -0.09854631
000340 de 1b 3b bc 21 1d 89 bc e5 a1 9c bb 77 77 0a bd
       -0.011420218 -0.016737523 -0.0047800415 -0.033805337
000350 2e 87 17 3d e8 4f c2 bd ed 7e 69 bd ba 3f 48 bd
       0.03699415 -0.09487897 -0.05700581 -0.0488889
000360 77 91 5b bc 41 ed 05 bd 4c e7 8c bb 58 98 fc 3c
       -0.013401381 -0.032696966 -0.0043000337 0.030834362
000370 42 ef d6 3c c0 ac 93 bb 31 7b 10 bd 1f b1 94 3d
       0.026237134 -0.0045066774 -0.035273734 0.07260346
000380 d8 b3 0a 3d 64 9d 2b 3d 6d c0 13 bd f9 8e 02 bd
       0.03386292 0.041898146 -0.036072183 -0.03187463
000390 7d 29 29 3d f5 60 6b 3d a5 5c 17 bc 2f a6 8e bd
       0.041299332 0.057465512 -0.009238397 -0.06965291
0003a0 03 0d b0 3d 50 79 5a 3c cd d2 f2 bc 4f a2 3c 3c
       0.08596232 0.013334587 -0.029641533 0.011513307
0003b0 99 5c 2d 3c c5 ed 30 3d 11 68 b6 3d f6 36 38 bd
       0.010581159 0.043195505 0.08906568 -0.04497429
0003c0 be c9 f7 3c 1a d8 a7 3c f5 60 b6 3b f7 b8 ad bd
       0.030247565 0.020488787 0.0055657574 -0.08482545
0003d0 b9 2b f3 bc df 7c 7d 3c ef f7 a9 bd 62 83 e1 3c
       -0.029683935 0.015471666 -0.08299243 0.027528469
0003e0 c5 41 93 bd b1 bc 91 bc bf b6 6b bd 71 14 f7 bb
       -0.07190279 -0.01779017 -0.057547327 -0.0075402786
0003f0 32 ae 50 3d f8 c9 fb bc b0 a2 4c 3d e9 93 38 bd
       0.050947376 -0.030735955 0.04995984 -0.045062933

conv2.bias f4 [32]
000000 49 1e c9 bb ba ea 20 bc 09 86 84 bd 4d 04 c3 bd
       -0.0061376435 -0.009821588 -0.06470878 -0.09522305
000010 91 09 19 bd eb e2 8e 3d 46 7b 7b bc 67 5c d1 3c
       -0.03736264 0.06976875 -0.015349215 0.025556756
000020 e4 f5 f6 3c a2 36 b9 bc 17 c6 13 bd a5 90 a6 3d
       0.030146547 -0.022609059 -0.036077585 0.081330575
000030 5f 36 81 3d 19 88 33 bd 5d 87 69 3d a8 d6 ad 3d
       0.063091986 -0.043830965 0.057013858 0.08488208
000040 01 86 59 bd 66 15 1e 3d 60 91 6b bd 46 39 10 bd
       -0.05310631 0.038594626 -0.057511687 -0.03521087
000050 1a 76 2d bc 11 ae 33 bd 89 bf 09 3c 1d c3 2c bc
       -0.01058724 -0.043867175 0.008407482 -0.0105445655
000060 4c 3a 16 bd 9a 7e 4d bd 93 14 59 bd 07 23 0e bd
       -0.03667669 -0.050169565 -0.052998137 -0.034701373
000070 e1 83 07 3c 56 50 88 3d 05 17 c8 bb 46 f8 5b bc
       0.0082711885 0.06655948 -0.0061062598 -0.013425892

conv3.weight f4 [64, 32, 3, 3]
000000 9e 71 92 bd 35 b1 93 bd 9e 01 b8 3c 7d eb 65 bd
       -0.07150577 -0.07211534 0.022461709 -0.056132782
000010 26 7f e3 bc ab 6c 13 3d 43 9f a6 bc 09 bb af bb
       -0.02777059 0.035992306 -0.020339614 -0.0053628725
000020 32 b5 12 3c eb 73 6f bd a1 ea 02 3d 20 54 8d bd
       0.008954333 -0.058460157 0.03196204 -0.06900811
000030 ad 06 e8 bb 43 cd 1a 3c 34 e3 30 3d c4 77 89 bd
       -0.007080874 0.009448352 0.043185428 -0.067122966
000040 37 98 85 bc 8c d9 b0 bc 4f e2 12 3c 8e 8c 19 bc
       -0.016307933 -0.02158811 0.008965089 -0.00937189
000050 37 e9 14 bd 01 0a 8f bb fe de 1e bd 27 01 49 3d
       -0.036355224 -0.004365206 -0.03878688 0.049073365
000060 1c 35 89 bc 49 49 23 bd 64 03 ee 3b 4c 80 9f 3c
       -0.016748957 -0.039864812 0.007263588 0.019470356
000070 a6 bf 7f bd 80 a1 95 3a cf cd 3f bd 5f 3b 32 3d
       -0.06243863 0.0011415929 -0.046827134 0.043513652
000080 c4 78 3c bd 12 ff 83 bc 0f b8 4e bd 93 d6 2d 3d
       -0.04601361 -0.016112838 -0.0504685 0.042440962
000090 5b 9e 00 3d 85 f0 25 bd 28 a1 ed b9 9c 5f 80 3b
       0.03140102 -0.04051258 -0.00045324233 0.0039176475
0000a0 09 95 6d bc d8 a7 c8 bc dc 36 28 3d 36 ee 1a 3c
       -0.014500865 -0.024494097 0.041067943 0.009456208
0000b0 bf 47 13 bd f3 e8 f4 3c dc 72 57 bc 7b 54 2c bc
       -0.035957094 0.029896235 -0.013149943 -0.010518189
0000c0 5d f0 26 3b 4b 83 e7 3b 43 88 94 3c db c3 bb bc
       0.0025472858 0.007065212 0.01813138 -0.02292054
0000d0 6e 82 dc bc 74 b4 46 bd 72 43 b5 3c 98 0f 0e 3d
       -0.026917662 -0.048511937 0.022126887 0.03468284
0000e0 37 19 ad bb 41 33 b2 3c 13 cd aa 3c 3b ab ac bc
       -0.005282547 0.021752955 0.02084974 -0.021077743
0000f0 9f 91 61 bd 5a ac d8 bc 95 c3 b1 bc 90 1a a6 3c
       -0.055070516 -0.026449371 -0.021699706 0.020276338
000100 c3 fa 74 bd aa a8 a3 bb 11 78 72 bc 3e 88 84 3c
       -0.059809458 -0.0049944716 -0.014799134 0.016178247
000110 b4 3f 13 3d db c2 e9 bc 66 3d 6b bd 6d cc 7e bd
       0.035949424 -0.028535297 -0.0574316 -0.062206674
000120 99 2f 2f bd e5 e5 fd 3c bb b0 77 3c 85 d9 40 3d
       -0.042770002 0.030993411 0.015117819 0.047082443
000130 bf 3f 26 3b 8c 4a 32 bd 83 79 5b bd 9c 7b bd bb
       0.0025367585 -0.043528125 -0.05358268 -0.0057825577
000140 89 d3 f9 3c 38 f3 e0 3c c1 e6 8a 3b a0 26 52 bd
       0.030496376 0.027459726 0.004238934 -0.051306367
000150 a7 31 23 bc d0 1c c0 3c 4b 55 c1 bb b1 45 24 3d
       -0.0099605685 0.023451239 -0.0059000603 0.040105525
000160 5c 4b 39 3d 30 62 7e bd 3b 39 e9 b9 3b 12 0e 3c
       0.045237884 -0.062105358 -0.00044483863 0.008671339
000170 13 6d a2 bc cb 1b 5d 3c 41 58 7a bc b0 9e 7d bd
       -0.019827401 0.013495396 -0.01527983 -0.061918914
000180 7d 3a 8d 3b c9 f7 27 3d a1 4d 56 bd 24 17 83 bc
       0.004309951 0.04100779 -0.052320126 -0.016002245
000190 52 a3 b1 bc 39 1f 8c 3b df 43 a2 3a bb b3 b9 bb
       -0.021684323 0.004276183 0.0012379846 -0.0056671775
0001a0 a4 16 03 3d 72 53 80 bd 0c 04 bd bc 5f 10 0d bd
       0.032004014 -0.06265916 -0.023073219 -0.03443944
0001b0 80 26 0b bc 28 c1 4d bd 13 b7 ab 3c e2 ac 45 bc
       -0.008493066 -0.050233036 0.02096132 -0.012065144
0001c0 55 08 52 3d dd b9 02 3d ae d5 f5 3c 2c e8 4f bd
       0.051277477 0.031915534 0.030009117 -0.050758526
0001d0 6b ab d2 3c d9 d3 1a 3d 6b ee 13 3d 4b e1 4e bb
       0.025716504 0.03779969 0.036116045 -0.003156739
0001e0 ee cd 27 3d 11 90 0b bd d6 99 15 bd c8 8e 50 bd
       0.040967874 -0.03407294 -0.036523663 -0.050917417
0001f0 30 23 c7 3c 7a e0 3e bd de 8e c3 3a a9 5f 21 3c
       0.02430877 -0.046600796 0.0014919897 0.009849467
000200 1a ae 27 bd 03 4c 7e bd fa 0a 83 bd 9e b3 d9 3c
       -0.04093752 -0.06208421 -0.06398578 0.026574906
000210 35 9a 71 3c 3d 9d 5b 3b aa e6 a3 bc 64 48 1d 3d
       0.0147462385 0.003351047 -0.02000745 0.038399115
000220 57 d0 d2 bc d3 c0 44 bc 59 f1 45 3d d1 5e 35 bd
       -0.02573411 -0.0120088635 0.04832587 -0.044279877
000230 16 46 fa 3c b0 e6 82 bc b7 4f 47 3d 1d ad 22 3d
       0.030550998 -0.015979141 0.048660006 0.039715875
000240 9e e4 82 bd f6 f7 bd 3c e6 c8 e4 bc 20 41 df bc
       -0.063912615 0.023189526 -0.027927827 -0.027252734
000250 1f 7d 68 bc df 81 80 bd c1 5e a6 3c 84 b8 f3 3b
       -0.014189987 -0.06274771 0.020308854 0.0074377675
000260 d7 00 df 3b d3 f0 70 bd b3 ba 05 3d df 32 24 3d
       0.00680552 -0.058823418 0.032648753 0.040087577
000270 d2 f9 1e 3d 44 08 aa bc 3c ea 36 bd 1e 48 b8 3c
       0.038812466 -0.020755894 -0.044656977 0.022495326
000280 91 c7 19 bc 3c a3 9a bc 70 de ef bc 5e c9 94 bb
       -0.009385959 -0.018876664 -0.029280871 -0.0045406064
000290 0c 7c 8c bc 8f da 9e 3b 97 1c 7d bd 06 60 89 3c
       -0.017148994 0.0048478316 -0.061794844 0.01676942
0002a0 5e 21 88 bd f8 37 3c bd 9b 41 bd 3b 46 23 f8 bb
       -0.06646989 -0.045951813 0.005775643 -0.0075725643
0002b0 c0 fb 2e bd dc cd 91 3c 19 43 55 bd 92 64 0d 3d
       -0.042720556 0.017798357 -0.052065942 0.03451974
0002c0 f9 18 32 bd 6f 57 25 3d e7 70 63 bd 19 be 14 3d
       -0.043480847 0.040366586 -0.055527594 0.036314104
0002d0 f1 39 8a 3c de 59 4a bc 15 3a c3 3b 9d 04 75 3c
       0.016873332 -0.012350528 0.0059578517 0.014954713
0002e0 2e ba 33 bd 52 d0 88 3c 6a 77 1f bd 84 0e fe 39
       -0.043878727 0.016700897 -0.03893224 0.0004845747
0002f0 fc b0 0b 3c 7e 9d 10 3d d2 75 84 bd ea c8 91 3c
       0.008526083 0.035306446 -0.06467785 0.017795999
000300 2a cd 79 bd e7 fa 4b bd 7c 59 6e 3c d4 ab ec 3a
       -0.060986675 -0.049799826 0.014547702 0.001805658
000310 a0 07 2a 3d e4 a8 14 bd 40 03 34 bd 39 79 f9 3c
       0.041511178 -0.03629388 -0.043948412 0.030453311
000320 63 01 28 3d 3d b1 c0 3c de 3d b7 3c ed 09 3b bd
       0.041016947 0.023522014 0.022368368 -0.045663763
000330 3e 8b 13 3c 27 76 c9 bc cf 03 16 3d f7 38 18 3d
       0.009005366 -0.024592472 0.036624726 0.0371637
000340 82 a3 c2 3c 44 42 61 bc c3 1f 3c bd e9 78 39 bd
       0.023759607 -0.013748709 -0.045928728 -0.045281325
000350 b9 b3 13 bd 0b a1 24 bd 38 66 07 3b 2f 1a bf bc
       -0.03606007 -0.040192645 0.0020660292 -0.023327915
000360 b3 6a 39 3d 8f 19 d8 bb 7a 49 e9 3c 96 f9 8e bc
       0.045267772 -0.0065948437 0.02847742 -0.017452996
000370 17 a3 08 3d 44 1a d7 bc b5 be 5a bb 25 17 80 bd
       0.03335866 -0.026257642 -0.003337783 -0.062544145
000380 cc 30 db 3c 77 ec 03 3d 53 57 0a bc 86 e6 db 3c
       0.026756667 0.032207932 -0.008443671 0.02684332
000390 a0 10 a3 bc 1a da 2f 3d d5 4c 24 3b 38 78 14 bc
       -0.019905388 0.042932607 0.002507021 -0.0090618655
0003a0 82 56 25 bd d4 02 1f 3d 39 ae 81 bd 94 e4 6b bd
       -0.040365703 0.038821056 -0.063320585 -0.057591036
0003b0 69 d0 f2 3c 0f 50 5c bd e2 f9 d6 3a d4 b9 77 bc
       0.029640393 -0.053787287 0.0016401375 -0.0151199885
0003c0 80 d4 20 bd 23 c4 02 3d c3 c0 8a 3c e8 0a 1e bd
       -0.039265156 0.03192533 0.01693762 -0.03858462
0003d0 58 31 e6 bc 2e 9c ff bc 43 e7 13 3c 56 a3 35 bd
       -0.0280997 -0.031202402 0.009027305 -0.044345222
0003e0 bf 0f 8d bd 65 1b 97 bc bd f9 1e bd 26 db 07 bd
       -0.06887769 -0.01844568 -0.038812388 -0.03316798
0003f0 2c eb 35 bd 09 47 2f bb 43 64 30 bc 25 dd 5b bd
       -0.04441373 -0.002674522 -0.010766092 -0.053677697

conv3.bias f4 [64]
000000 cc b5 7c bd 2e 4b 15 bd 2e fc 99 3c f9 14 85 3c
       -0.061696813 -0.03644865 0.018797006 0.016245352
000010 6a 3b 53 3d 51 14 89 bd 65 3e 9c 3b a2 f2 11 bc
       0.051570334 -0.06693328 0.00476818 -0.008907946
000020 12 af 53 3d c7 c9 63 bd b9 a9 a7 3b 0d 51 71 3d
       0.051680632 -0.05561235 0.005116668 0.058915187
000030 d4 ab b0 bb 7e f7 74 bb 8a ad 5e bd c1 09 47 bd
       -0.0053915773 -0.0037378962 -0.05436472 -0.048593286
000040 1b 40 20 bd 8c cd 3f bd 43 40 6b bd 04 6a ee 3b
       -0.039123636 -0.046826884 -0.05743433 0.0072758216
000050 49 7f 23 bd c9 89 05 bd de c8 99 bd 63 f0 85 3d
       -0.03991631 -0.032602105 -0.075090155 0.06539991
000060 91 3a 01 bd c5 cc 61 3d 04 fb a5 3d 2c b7 83 bd
       -0.031549994 0.055126924 0.08104518 -0.06431422
000070 3c 7c 57 3d d4 09 80 bd 58 37 45 bb e2 61 42 3d
       0.052608714 -0.062518746 -0.0030092802 0.04745663
000080 40 64 40 bd 59 62 3d 3d 17 c9 3d bd 93 fa 8e bd
       -0.046970606 0.04623637 -0.046334352 -0.06981387
000090 0e 1c 4c bd a0 e0 0a bd 57 d7 70 bd c0 19 4e 3d
       -0.049831443 -0.033905625 -0.058799114 0.050317526
0000a0 7c ce e9 bc 8c d1 2e bc 39 15 d3 bc bf cf b0 bc
       -0.028540842 -0.010670077 -0.025766956 -0.021583436
0000b0 b7 de 6e 3d ca af d8 bc 68 55 a2 3d 15 9b 9f bc
       0.058317866 -0.02645101 0.07926446 -0.019483129
0000c0 04 59 08 bd 19 e7 61 bd 88 72 75 bd ec f3 3f 3d
       -0.033288017 -0.055152033 -0.05992368 0.04686348
0000d0 49 e5 8d bc 21 c6 49 bd 9e fe 43 bd ed a1 38 bb
       -0.017321246 -0.049261216 -0.047850244 -0.0028172687
0000e0 08 b9 88 bc bc 83 6c bd 7e 3a aa bb 03 99 77 bc
       -0.016689792 -0.05774282 -0.005194961 -0.015112164
0000f0 62 c8 69 3d 1a a2 51 bd d9 a0 1a 3d 30 9f 3c bd
       0.057075866 -0.051179983 0.037751053 -0.04605025

head.1.weight f4 [1, 18496]
000000 cd 03 8e 3b d3 8f a9 bb bc 6a bb bb 22 c2 74 3b
       0.004333949 -0.005174616 -0.005719511 0.0037347157
000010 2d 96 9c bb 77 94 e8 3b 57 fb b9 3b f1 b8 82 3b
       -0.0047786445 0.0070977765 0.005675714 0.003989332
000020 f1 3d 89 3a eb d2 ed 3b 1a 0b 10 3b 62 a7 db ba
       0.001047073 0.0072578094 0.0021979273 -0.0016758258
000030 26 00 b9 3b 8d 9f e0 3b 69 42 21 3b 97 05 fa 3a
       0.0056457696 0.0068549574 0.0024606234 0.0019075152
000040 39 ad 09 3b e8 9a cd 3b 60 31 84 3b 09 6f d6 bb
       0.002100779 0.00627457 0.0040342063 -0.006543998
000050 e2 84 d1 bb 49 e8 c9 3b f5 10 73 3b 13 c3 0f bb
       -0.0063940147 0.0061617238 0.0037088965 -0.0021936342
000060 84 e7 d9 3b c4 43 b5 38 20 7d e8 bb e2 26 b0 3a
       0.0066499133 8.643375e-05 -0.007094994 0.0013439322
000070 de de 69 3b 88 f3 02 b9 8b b4 bc bb 02 95 8c 3b
       0.0035685818 -0.00012488489 -0.005758827 0.004290224
000080 bc af b5 3a 8d 45 b1 3b 40 5c 2b 3b 27 b5 12 3a
       0.0013861577 0.0054099024 0.0026147515 0.0005596452
000090 73 d2 71 3c 69 0b 44 3a 00 e5 11 bb 4f 6b 76 bb
       0.014759648 0.0007478507 -0.0022261739 -0.0037600582
0000a0 d3 42 c2 39 c4 89 04 3b 66 a6 19 3b 1a 1c 20 3b
       0.0003705235 0.0020223716 0.0023445128 0.0024430812
0000b0 35 40 a5 3b 48 37 4d 3b 86 a4 9a bb e6 ce 95 3b
       0.0050430545 0.0031313468 -0.0047193198 0.0045717834
0000c0 91 62 e2 3b 5a ff 30 3a 88 b2 16 3a e2 51 59 3c
       0.0069087227 0.00067519175 0.0005748649 0.013264151
0000d0 0a 62 17 3c 35 3d a9 3a 1e d3 8e 3b 2d 4d 5a b9
       0.009239683 0.0012911918 0.004358663 -0.0002081885
0000e0 0d cd 93 bb b5 42 56 ba 15 f5 b4 3b 39 03 e7 3b
       -0.004510528 -0.0008173392 0.00552238 0.0070499447
0000f0 22 66 44 3b 1e 9d 04 bb 17 b9 c3 ba cb 2a a4 ba
       0.0029968102 -0.002023525 -0.001493248 -0.001252496
000100 79 13 ca 3a 48 f9 93 3b 0f 12 13 bb dc 11 cb 3b
       0.001541718 0.0045158006 -0.0022441184 0.0061971974
000110 8f 28 93 3b 68 9b be 3b 84 4d 40 bb ad 31 b7 ba
       0.004490919 0.0058168657 -0.0029343078 -0.0013976597
000120 17 90 9e 3b 9a c7 2c bb fb 01 19 3c 7e 5e 09 3b
       0.004838954 -0.002636409 0.009338851 0.0020960863
000130 89 7b da 3a 6f c7 4e 3c b1 44 31 3c 41 00 48 3c
       0.0016668896 0.012620791 0.0108196 0.012207092
000140 0d 34 f0 bb ad 05 b9 3b b7 f9 11 3a 1e 1e 3c b7
       -0.0073304237 0.0056464286 0.00055685214 -1.1212685e-05
000150 13 55 e7 3a 1a f6 22 3b 71 c4 14 3b f5 c7 7f bb
       0.0017649255 0.0024865926 0.0022700096 -0.0039029096
000160 97 93 c0 bb 1e 2f c9 bb 73 1f cf bb a9 da 53 bb
       -0.005876969 -0.00613965 -0.0063208877 -0.0032326377
000170 71 4b 33 3b ed a9 78 bb 7c 0b e5 3b 9e 8d 6a 3b
       0.00273582 -0.003794308 0.0069898944 0.0035789977
000180 79 65 b2 ba ad 0a 8b bb 44 ac 10 bb 1b d1 d6 ba
       -0.0013610563 -0.004243216 -0.0022075335 -0.0016389223
000190 5a 0a b5 b9 7c ce 43 bb 35 d5 07 3b c8 ea 48 3b
       -0.00034530723 -0.0029877713 0.0020726447 0.0030657519
0001a0 a0 44 c6 3b 0d 3d be 3b e2 ed 72 3a d7 d7 55 bb
       0.006050661 0.0058056177 0.00092670147 -0.0032629871
0001b0 80 e7 46 bb 1e b7 3a 3b d7 0d 54 3b 80 dc 1a bb
       -0.0030350387 0.0028490494 0.0032356882 -0.0023629963
0001c0 99 8a b9 3b e0 6a ef bb 8f 93 e4 3b 4b 44 0f bb
       0.005662274 -0.0073064417 0.006975598 -0.0021860774
0001d0 35 ad 60 bb f8 28 8c 3a 48 dd 62 bb 80 48 35 bb
       -0.0034282927 0.0010693362 -0.0034616757 -0.0027661622
0001e0 c0 ff 64 bb d3 79 20 ba e9 5c f7 3b 09 0a b6 3b
       -0.0034942478 -0.0006121669 0.0075489176 0.0055553955
0001f0 f9 8c 94 bb 31 fa 76 bb e2 ba ed bb 2d d4 79 bb
       -0.004533407 -0.0037685747 -0.007254944 -0.0038120851
000200 4f b2 14 bb 4b d1 9e 3a b5 74 37 3b e4 b0 ad bb
       -0.0022689288 0.0012116818 0.0027993147 -0.005300628
000210 ef 08 a7 bb bc 44 72 bb 3e d1 97 3b 89 c6 17 3c
       -0.0050975005 -0.0036967238 0.004633098 0.009263643
000220 17 62 ee 3a 6d e0 96 3b c4 b7 ac 39 5d 1b 40 3c
       0.0018187192 0.0046043904 0.00032943313 0.011725274
000230 69 39 09 b9 97 d6 6b b8 f7 e7 df bb e2 97 a5 3b
       -0.00013086725 -5.622822e-05 -0.0068330723 0.005053506
000240 48 ae 76 bb f9 21 b1 3b da 53 ba 3a f1 04 4f 3a
       -0.00376405 0.005405661 0.0014215664 0.00078971597
000250 4b 26 58 3a a8 6e b4 3a 94 c8 0a 3c 96 10 21 3b
       0.0008245452 0.0013765888 0.008470673 0.0024576536
000260 d9 e2 31 3c 54 33 99 3b 3e 87 53 3c 51 80 b7 3a
       0.010857307 0.0046753082 0.012910662 0.0014000033
000270 a6 31 0f bb 15 01 af bb 2d 47 cb b9 69 c1 ca b9
       -0.002184966 -0.005340705 -0.00038772207 -0.00038672544
000280 d3 5f 1e ba 29 44 30 3b 22 ec ce bb be b8 ca ba
       -0.00060415006 0.0026896095 -0.0063147703 -0.0015466434
000290 f7 75 d6 3b 3c 33 88 3a 1f d2 76 3b 64 aa 31 3c
       0.006544824 0.0010391246 0.0037661863 0.010843847
0002a0 8b 5e 75 3b 39 71 d4 3b aa dc 56 3b 2b 9d 2d 3b
       0.0037440385 0.0064832238 0.0032785335 0.0026491384
0002b0 06 c6 b0 3b 60 b2 e9 bb f1 4f c4 ba a2 39 a3 bb
       0.0053947 -0.0071318597 -0.0014977438 -0.0049812356
0002c0 97 68 aa 3a a9 29 15 3b 35 92 c5 ba e6 64 4b bb
       0.0013001141 0.0022760427 -0.001507348 -0.0031035482
0002d0 d5 4f 8f 3b 4b 60 c6 3a 69 b6 7b bb 35 88 6f 3b
       0.0043735304 0.0015134899 -0.0038408285 0.0036549692
0002e0 98 c7 c8 bb 59 b8 93 bb 99 2e 7b 3c 81 6f d7 3a
       -0.006127309 -0.00450806 0.015330934 0.0016436429
0002f0 e4 9c 4b 3b b1 d5 56 bb 40 78 ad bb fe 25 db 3b
       0.0031068856 -0.0032781179 -0.005293876 0.0066878786
000300 3c 4d 85 3a b3 9f b4 bb a6 b7 b0 39 ab 70 da 3b
       0.0010170112 -0.0055122017 0.00033706165 0.006666263
000310 15 a9 eb bb 48 3e 42 3b 02 d7 b2 bb 2d 21 86 3a
       -0.007191787 0.0029639173 -0.00545776 0.0010233276
000320 b9 42 b2 bb 54 43 d1 3a 7c 76 2b bc b3 84 c4 bb
       -0.005440083 0.00159655 -0.010465261 -0.0059972643
000330 13 9e b2 3b 2d 35 86 ba 70 5b 8a 3b 5c ec 93 bb
       0.005450973 -0.0010239236 0.004222326 -0.00451426
000340 c4 9b 8a bb 42 bf bc 3b 5c db e3 bb d9 6b b8 bb
       -0.0042299945 0.0057601044 -0.00695364 -0.005628091
000350 a6 a4 80 3b 0b 41 e2 3b 40 ce 69 bb 49 00 81 bb
       0.0039258776 0.0069047264 -0.0035675913 -0.0039368016
000360 79 90 af 38 26 53 32 3b 48 1e 99 3b 48 05 a9 bb
       8.3715604e-05 0.0027210205 0.0046727993 -0.0051581003
000370 44 90 56 bb b9 7d 23 3b b5 ae be 3b fc bc a8 bb
       -0.0032739798 0.0024946763 0.0058191665 -0.005149482
000380 f9 31 55 3b 69 58 a0 bb 57 09 26 3b 8f d1 cb 3b
       0.0032531007 -0.004893352 0.0025335157 0.0062200497
000390 e9 2f ca 3b c2 e9 d3 bb cb 7a c7 3a 91 62 ba bb
       0.006170262 -0.006467075 0.001521909 -0.0056880196
0003a0 7c b3 dd 3b 69 99 d1 39 3c 90 95 39 9e 4a 30 3b
       0.006765781 0.00039977886 0.00028526958 0.0026899944
0003b0 4a 35 6b 3b 35 f4 e7 ba 04 28 a9 bb c2 57 84 bb
       0.0035889917 -0.0017696681 -0.005162241 -0.004038782
0003c0 f5 c0 da bb a2 30 b9 bb 2d 35 14 ba 2d 19 5e 3b
       -0.0066758343 -0.0056515494 -0.0005653676 0.0033889518
0003d0 d3 23 d3 3a 97 6d 75 3a f1 34 d7 ba 4f 9f 1d bb
       0.0016108699 0.00093623385 -0.0016418976 -0.0024051254
0003e0 a2 75 3c bb 28 58 bb bb 6b 51 b8 3b 2d 25 e5 b9
       -0.0028756638 -0.005717296 0.00562494 -0.00043705982
0003f0 88 1f 05 39 c4 0d 63 bb 69 f8 ef bb 08 71 e6 3a
       0.00012695615 -0.0034645656 -0.007323314 0.0017581293

exp_avg f4 [16, 3, 3, 3]
000000 4c 7e 09 3d ad 41 12 3d 7a a4 2c 3d 21 2f 07 3d
       0.03356771 0.035707165 0.042149045 0.03300393
000010 c7 a3 0d 3d ea 12 21 3d b7 04 13 3d 7c f9 0a 3d
       0.03458002 0.03932468 0.03589317 0.033929333
000020 a6 b6 0d 3d e1 94 da 3b 82 91 0f 3c a2 a3 77 3c
       0.034598015 0.00667058 0.008762719 0.015114697
000030 b6 f2 a8 3b 46 da e7 3b dd 1b 3b 3c b7 d3 08 3c
       0.0051558865 0.007075581 0.011420217 0.008351258
000040 33 c7 dd 3b 8d 6c f5 3b 88 e4 ba bc fa f7 a8 bc
       0.006768131 0.007489747 -0.02281405 -0.020626057
000050 2d e1 5a bc f1 06 c3 bc a8 c2 b2 bc 84 d2 86 bc
       -0.01335935 -0.02380702 -0.021821335 -0.016457804
000060 cb ca 9f bc ce 8d a7 bc ea 72 9f bc 8c 94 c5 3b
       -0.019505879 -0.02045336 -0.019463975 0.006029671
000070 24 9d e0 3b 55 87 d7 3b 6f 88 f6 3b 7a 5e fe 3b
       0.00685467 0.006577412 0.0075235884 0.0077627273
000080 6b 52 eb 3b 5e e8 bc 3b 78 ec d1 3b bb 0c c3 3b
       0.007181456 0.005765005 0.006406363 0.0059524453
000090 1c 87 10 3b 19 48 28 3b 12 50 22 3b 71 f4 7a 3b
       0.0022053188 0.002567774 0.0024766964 0.003829267
0000a0 5a a3 66 3b 9d e3 3f 3b f8 58 04 3b 3d be 12 3b
       0.003519258 0.0029279955 0.002019463 0.0022391223
0000b0 d2 19 da 3a 25 01 82 3a c4 b6 d7 3a 63 05 08 3b
       0.0016639775 0.0009918554 0.0016457667 0.0020755164
0000c0 e1 8b 3d 3b 15 b0 20 3b c9 6e 08 3b 83 2d db 3a
       0.0028922486 0.0024519016 0.0020817986 0.0016721938
0000d0 e1 b6 a8 3a 21 7c 57 3a 9e 4d d4 bc df 45 a3 bc
       0.0012871885 0.0008220096 -0.025915917 -0.019930778
0000e0 6b 1e a2 bc 02 e8 ef bc 0d b0 9d bc 01 c9 ae bc
       -0.019789895 -0.029285435 -0.019248987 -0.02133608
0000f0 10 89 b9 bc c4 e2 9e bc d3 7a c3 bc 61 9f 8d 3b
       -0.022648364 -0.01939524 -0.023862278 0.004321978
000100 9d f0 75 3c e7 82 4f 3c 6f 3d 2d 3b 8f 39 69 3c
       0.01501098 0.012665487 0.0026434322 0.014234914
000110 4a 8f 32 3c 4f 0b 6a 3c 1e 2e 77 3c 89 bb 48 3c
       0.010898421 0.014284923 0.015086679 0.012251743
000120 71 64 3e bc 84 41 b7 3a cf c1 16 ba ad 22 50 bc
       -0.011620627 0.0013981317 -0.00057509256 -0.01270358
000130 a5 20 17 ba 1a 63 81 ba dd 5d ee 3a fa 70 97 3b
       -0.0005765057 -0.0009871454 0.0018185932 0.004621622
000140 4d cb b2 3b 24 97 6e bd a8 1a 5a bd c4 6a 8e bd
       0.0054563642 -0.058249608 -0.053248078 -0.06953958
000150 d4 90 6e bd a1 cd 4c bd 65 6c 89 bd a2 db 81 bd
       -0.058243588 -0.05000079 -0.06710128 -0.0634072
000160 76 5d 54 bd de b7 81 bd ae 3c 45 bd d3 7c 3f bd
       -0.051846944 -0.06333898 -0.04815357 -0.0467499
000170 ac 4c 87 bd c8 99 54 bd a3 c8 37 bd 9b d3 86 bd
       -0.06606421 -0.05190447 -0.044869076 -0.06583329
000180 3a 95 67 bd 51 54 32 bd 45 17 6e bd cd 07 11 bd
       -0.056538798 -0.04353744 -0.05812766 -0.03540783
000190 6b 72 02 bd 40 bc 4b bd 9e 23 25 bd 09 73 fe bc
       -0.0318474 -0.049740076 -0.04031717 -0.031060712
0001a0 ce 2f 52 bd ea c2 36 bd c6 5e ec bc bd 5a 2d bd
       -0.05131512 -0.04461948 -0.028853785 -0.042322863
0001b0 6c 31 c0 bd 83 66 d0 bd f6 e5 1d be 0f d8 95 bd
       -0.093844265 -0.101758026 -0.15419754 -0.073166005
0001c0 5a 7a f1 bd 1a 0d 31 be 17 de 9e bd 22 67 0d be
       -0.11790915 -0.17290154 -0.07757204 -0.13808873
0001d0 af 6b 28 be 9c 69 ad bd d2 e2 bf bd db 23 12 be
       -0.16447328 -0.08467409 -0.093694344 -0.1427149
0001e0 33 6a 84 bd a8 8c e2 bd 4e 3c 26 be 60 a8 8c bd
       -0.064655684 -0.11061984 -0.16233942 -0.068680525
0001f0 d0 35 06 be ce 4a 1f be 87 09 72 bd d9 5c 85 bd
       -0.13106465 -0.1555588 -0.059091117 -0.0651185
000200 13 82 f5 bd 95 4a 28 bd 63 be ae bd 45 5c 13 be
       -0.119877 -0.041086752 -0.08532407 -0.14390667
000210 be 0b 57 bd 59 78 e7 bd 1f db 11 be 09 0e 3b bd
       -0.052501433 -0.11302251 -0.14243744 -0.04566768
000220 a3 42 23 bd 95 49 1d bd ca 5f 3b bd b3 ad 23 bd
       -0.03985847 -0.03840025 -0.04574565 -0.039960574
000230 eb cd 19 bd 84 1d 4b bd b4 61 37 bd db ad 2d bd
       -0.037549894 -0.049588695 -0.04477091 -0.04240213
000240 1a 2c fc b9 b0 dd c9 3b 04 66 00 3c 21 a5 12 ba
       -0.00048098044 0.0061604604 0.007836822 -0.0005594064
000250 52 b0 b3 3b 42 dd 00 3c e5 31 9c bb 89 6c e0 3a
       0.0054836655 0.007865252 -0.00476669 0.001712219
000260 e7 4b 79 3b 79 18 51 3c fa af a9 3c 20 44 c1 3c
       0.0038039626 0.012762182 0.020713795 0.023592055
000270 c9 d5 4e 3c c3 21 9d 3c 70 d5 ba 3c 17 5a ff 3b
       0.012624213 0.019181138 0.022806853 0.007792722
000280 90 22 78 3c dd 9b 96 3c d9 0b 80 bd 9c 93 7a bd
       0.015144959 0.018384868 -0.0625226 -0.061175928
000290 54 e8 c5 bd ba 2e 51 bd 35 a2 89 bd cc 3d d7 bd
       -0.09663454 -0.051069953 -0.06720392 -0.10509834
0002a0 b5 19 56 bd 01 13 8f bd 65 22 c5 bd 92 43 46 bd
       -0.05227061 -0.069860466 -0.09625701 -0.048404284
0002b0 a7 61 5a bd 25 c5 bc bd d2 67 2c bd d9 44 82 bd
       -0.053315785 -0.0921729 -0.0420912 -0.06360788
0002c0 25 fa d3 bd d9 37 30 bd 2b c8 86 bd 56 66 bf bd
       -0.10350446 -0.04302201 -0.06581148 -0.09345691
0002d0 70 f3 08 bd eb b6 0d bd aa 4c 94 bd e6 99 ec bc
       -0.033435285 -0.034598272 -0.07241185 -0.028881978
0002e0 ab c1 3e bd 85 b0 ae bd 79 4b 01 bd ed 68 4f bd
       -0.046571415 -0.08529762 -0.031566117 -0.050637174
0002f0 6a 31 9c bd 4e 6a db bb ba 60 cb bb 18 eb ee bb
       -0.076266125 -0.006696022 -0.006206599 -0.007291209
000300 50 62 0b bc 3c 6e ff bb dc e0 16 bc 24 08 62 bc
       -0.008507326 -0.0077951234 -0.009208884 -0.013795886
000310 81 6e 33 bc a6 9d 14 bc df 9c 82 3c d1 c2 88 3c
       -0.010951639 -0.009070789 0.015943943 0.016694458
000320 39 8d 7c 3c fd 3d 66 3c c4 40 70 3c a4 47 53 3c
       0.0154145295 0.014052865 0.014663879 0.012895498
000330 60 8a 17 3c 80 98 49 3c 40 1e 5e 3c ca f1 07 3d
       0.0092493 0.012304425 0.013557017 0.033189572
000340 d9 af 0e 3d 09 4e 09 3d f4 03 f8 3c d1 cc 00 3d
       0.03483567 0.033521686 0.030275322 0.03144533
000350 77 84 f3 3c f9 43 cb 3c 71 90 e7 3c a2 f1 ef 3c
       0.02972625 0.024812685 0.028267117 0.029290024
000360 18 1c 65 bb 35 b2 28 bb 7b 78 0f ba a0 02 1b bb
       -0.0034959372 -0.0025740985 -0.000547297 -0.0023652688
000370 a2 15 a9 ba 41 aa 94 3a 74 5d b3 ba 9a 1e 23 ba
       -0.0012900124 0.0011342244 -0.0013684467 -0.00062225165
000380 11 90 ca 3a 92 3b 4a bb 6e a0 f2 ba d3 1d 4d b9
       0.0015454312 -0.003085826 -0.0018510947 -0.00019561434
000390 0d c4 e9 ba 4d e1 79 ba ef ac 3b 3a 2a 13 3a ba
       -0.0017834917 -0.00095321686 0.0007159253 -0.00070981926
0003a0 3d de 20 ba 3a ae 9b 3a 8e b9 16 ba ab 9f bd 39
       -0.0006136632 0.0011877485 -0.00057496957 0.0003616785
0003b0 ca b2 be 3a 00 78 bd b8 2e d1 9f 39 aa a1 a3 3a
       0.0014549133 -9.034574e-05 0.00030482694 0.0012484093
0003c0 e7 15 19 39 b2 b3 a0 b7 95 26 68 3a c7 66 ee bd
       0.00014599376 -1.9157163e-05 0.0008855847 -0.11640697
0003d0 bb 46 f1 bd 4b 26 b1 bd 42 6f 01 be b6 28 e0 bd
       -0.11781069 -0.08649882 -0.12640098 -0.10945265
0003e0 f3 fd 9d bd b5 95 02 be cf 9b d5 bd 0e 86 b5 bd
       -0.077144526 -0.12752421 -0.10430109 -0.088634595
0003f0 4d 05 f3 bd e4 b1 f9 bd e2 b6 b4 bd ff 05 03 be
       -0.118662454 -0.12192133 -0.08823945 -0.12795256

exp_avg_sq f4 [16, 3, 3, 3]
000000 33 c6 d2 3c 96 b4 dc 3c 33 2d d9 3c f7 5f dd 3c
       0.025729274 0.026941579 0.02651081 0.027023299
000010 84 00 e8 3c 31 2d de 3c 67 f2 ef 3c 3c 85 f0 3c
       0.028320558 0.027121158 0.029290391 0.029360406
000020 0d 09 e0 3c 89 74 af 3c cd 3d b8 3c 83 c7 b6 3c
       0.027348066 0.021417873 0.022490406 0.022311931
000030 9a 62 b7 3c 57 0b c1 3c da a5 b9 3c 62 1f c4 3c
       0.022385884 0.023564978 0.022662092 0.023940746
000040 a3 23 c4 3c ae 0c b7 3c b2 8c 84 3c 1c 49 8a 3c
       0.023942774 0.022344913 0.01618037 0.016880564
000050 f8 f4 87 3c 11 83 8c 3c 21 14 91 3c 38 d5 89 3c
       0.016596302 0.017152341 0.017709794 0.016825303
000060 89 7b 93 3c ec a5 90 3c 4b 40 86 3c 19 25 c4 38
       0.018003242 0.017657243 0.01638808 9.352918e-05
000070 dc 13 a3 38 08 0e c7 38 b7 db a0 38 21 45 a6 38
       7.776145e-05 9.491673e-05 7.6703196e-05 7.928373e-05
000080 06 c3 b1 38 bc b0 9e 38 37 2e ac 38 49 22 b9 38
       8.476344e-05 7.5669464e-05 8.210207e-05 8.8278735e-05
000090 b2 b1 14 39 1c 0e 11 39 f5 84 1c 39 32 7c 0b 39
       0.00014180577 0.00013833534 0.0001492685 0.0001330234
0000a0 d1 b8 0c 39 e8 ee 09 39 4d 0e 0a 39 c3 3d 0c 39
       0.0001342029 0.00013154338 0.00013166033 0.00013374448
0000b0 bc 45 0c 39 4a bf 75 39 ce c5 7f 39 e2 29 7f 39
       0.00013377419 0.00023436281 0.00024392383 0.00024334298
0000c0 c5 eb 72 39 40 ad 75 39 06 b9 71 39 5b 74 70 39
       0.0002316675 0.00023429561 0.00023052478 0.0002293153
0000d0 ec 30 73 39 b6 6a 72 39 3b 53 f4 3c c0 c5 fb 3c
       0.0002319251 0.00023118671 0.029824844 0.030733943
0000e0 42 f0 0c 3d ac d6 db 3c 34 ee f5 3c 62 23 01 3d
       0.034408815 0.026835762 0.03002081 0.031527884
0000f0 75 b9 ea 3c 19 d2 ec 3c 00 98 dc 3c 6d c1 ef 3b
       0.028652886 0.028908776 0.026927948 0.0073167593
000100 75 3d ee 3b 8a 0a 0c 3c 12 af d0 3b f3 25 db 3b
       0.00727051 0.008547435 0.0063685263 0.0066878735
000110 f0 a0 ec 3b f6 ea f7 3b 97 e7 d7 3b 1f 71 c7 3b
       0.0072213337 0.0075658513 0.006588887 0.006086483
000120 50 0c d5 39 54 40 d2 39 bc 5e e4 39 d3 85 d6 39
       0.000406357 0.0004010225 0.0004355813 0.00040916968
000130 82 7e ca 39 17 c5 b3 39 8c 22 1a 3a 60 69 b8 39
       0.00038622698 0.00034288384 0.00058797817 0.00035173725
000140 6a 86 91 39 62 fb 85 3d 1d bf 8e 3d 2d d1 a2 3d
       0.00027756701 0.06542088 0.06970046 0.07950053
000150 f2 16 8d 3d 28 d2 91 3d 18 40 a7 3d c5 6a a8 3d
       0.06889142 0.07120162 0.08166522 0.0822349
000160 a3 2d 8c 3d 21 55 89 3d 1e 89 12 3d 2f c9 1e 3d
       0.06844642 0.0670569 0.035775296 0.038766082
000170 c7 4a 3d 3d 55 f6 1c 3d 9a 33 22 3d 9f 42 43 3d
       0.04621389 0.038320858 0.039599992 0.047670957
000180 e3 dc 47 3d 4b 85 1f 3d f0 93 1d 3d bc 26 9e 3c
       0.04879464 0.038945477 0.038471162 0.01930558
000190 61 fe a7 3c a8 03 c5 3c 02 aa a3 3c 2c 8d a2 3c
       0.02050704 0.024049595 0.019978527 0.019842707
0001a0 24 cc c7 3c 25 c0 dc 3c 1b 90 ae 3c 2a 24 ad 3c
       0.024389334 0.02694709 0.02130895 0.021135408
0001b0 14 81 1a 3e 3d 23 29 3e 02 7a 4d 3e 5e d4 11 3e
       0.15088302 0.16517349 0.20066074 0.14241168
0001c0 52 4e 2e 3e 57 81 59 3e 88 36 27 3e cd 36 5d 3e
       0.17022064 0.21240745 0.16329396 0.21602936
0001d0 d5 e4 75 3e a5 ab fc 3d d1 ba 05 3e ba 48 20 3e
       0.24013074 0.12337426 0.13059546 0.15652743
0001e0 65 6a f0 3d 8d 5e 0f 3e 23 fc 2f 3e a3 42 07 3e
       0.11739043 0.14000912 0.17186026 0.13209014
0001f0 a9 7f 2f 3e 0b 87 3e 3e a5 de 67 3d a3 04 6d 3d
       0.17138542 0.18606202 0.056608815 0.05786575
000200 cc 8e 8d 3d 3d 73 5e 3d e4 36 85 3d da ca a7 3d
       0.06912002 0.05430912 0.0650461 0.08192988
000210 38 a5 78 3d 43 f8 9f 3d 86 f0 ac 3d a9 80 5f 3b
       0.06070444 0.07811024 0.08444314 0.0034103787
000220 13 b5 51 3b 39 f7 4e 3b 6d cd 5d 3b 7f 95 55 3b
       0.0031998798 0.0031580462 0.0033844367 0.0032590327
000230 c5 11 50 3b 1a d6 a0 3b 32 15 99 3b 49 dd 67 3b
       0.0031748873 0.0049083354 0.004671716 0.00353797
000240 3d f0 71 3a fd 21 59 3a e4 d5 73 3a 08 59 82 3a
       0.00092292187 0.0008282958 0.00093015865 0.0009944746
000250 f9 34 5a 3a 8a 35 51 3a 9f c8 fe 3a 1d 8d cc 3a
       0.00083239336 0.0007980695 0.0019438452 0.001560602
000260 1b 00 6c 3a 91 ce f0 3a 83 71 01 3b 29 a4 05 3b
       0.0009002701 0.0018372108 0.0019751496 0.0020392037
000270 78 ee e5 3a 3f 3b dc 3a bf 1b e2 3a 58 09 e6 3a
       0.0017542383 0.0016802325 0.0017250701 0.0017550392
000280 0b b9 d7 3a f3 29 c3 3a d6 a4 2c 3d 4b 99 3c 3d
       0.0016458345 0.0014889821 0.042149387 0.04604463
000290 be 4f 7b 3d 85 65 40 3d 0e da 65 3d 60 8e 96 3d
       0.061355345 0.046971817 0.056116156 0.073513746
0002a0 f1 06 7a 3d 74 ff 91 3d f3 9f 98 3d ed db bd 3c
       0.061041776 0.07128802 0.07452383 0.023176158
0002b0 09 06 d1 3c e6 f9 16 3d d9 17 cf 3c b4 bc fe 3c
       0.025515573 0.036859415 0.025279926 0.03109584
0002c0 4d 85 36 3d 5c 3d 0e 3d e0 2b 2a 3d 16 e4 37 3d
       0.04456072 0.034726486 0.04154575 0.044895254
0002d0 79 b1 12 3c 86 fa 1a 3c 79 a0 74 3c 5e 4f 0f 3c
       0.008953446 0.0094591435 0.014930838 0.00874695
0002e0 40 c0 34 3c 23 7b 97 3c 13 ea 51 3c 0b 30 83 3c
       0.011032164 0.018491333 0.012812155 0.01601412
0002f0 aa a0 97 3c cc 6e b2 3a 2e 28 b6 3a 82 da a8 3a
       0.018509228 0.0013613342 0.0013897473 0.0012882503
000300 38 de b8 3a 53 10 b5 3a 4c 04 a6 3a 9d 28 ae 3a
       0.0014104312 0.0013814069 0.0012666075 0.001328725
000310 c0 e5 b3 3a 92 5f b3 3a b0 2d ef 39 b1 9b 11 3a
       0.0013725087 0.0013685098 0.00045619672 0.0005554511
000320 6c 45 05 3a ff 6d ec 39 0f 45 ec 39 6a 84 c9 39
       0.0005083892 0.0004509538 0.0004506488 0.00038436364
000330 20 ad a4 39 07 c8 cb 39 e7 1f f1 39 7b 5b a8 3a
       0.00031409506 0.0003886821 0.0004599087 0.0012844646
000340 46 17 b4 3a b1 a0 ae 3a 3f 8d 9f 3a 58 6c 9c 3a
       0.0013739846 0.0013323036 0.0012172832 0.0011934144
000350 4a f9 94 3a 4c 7f 85 3a 2c 2e 8e 3a b9 a7 96 3a
       0.0011365798 0.0010185032 0.00108475 0.0011494077
000360 7a 4a 2c 3a ea a3 2d 3a b5 a2 26 3a b6 1d 29 3a
       0.0006572377 0.00066238514 0.00063566427 0.00064512657
000370 86 d5 48 3a 46 d1 53 3a fe a4 12 3a 52 53 37 3a
       0.0007661212 0.00080801954 0.0005594044 0.00069933117
000380 26 b9 4d 3a c8 a4 7a 38 31 9c ad 38 82 f1 e2 38
       0.00078477187 5.975811e-05 8.278376e-05 0.00010821504
000390 4e fd 90 38 e6 0d a4 38 1a 5d a2 38 e6 bb 67 38
       6.913637e-05 7.822718e-05 7.7421035e-05 5.5249686e-05
0003a0 f4 b6 6c 38 25 0d 5e 38 2c a9 ad 38 27 1b c2 38
       5.6437173e-05 5.2941166e-05 8.2807936e-05 9.2556984e-05
0003b0 94 48 ce 38 76 18 c4 38 de 93 d0 38 8b c3 bd 38
       9.836364e-05 9.3505645e-05 9.945755e-05 9.048645e-05
0003c0 ed 3a 9a 38 c9 9a ae 38 3c 7a 92 38 42 2a 30 3e
       7.354268e-05 8.3257975e-05 6.9845904e-05 0.1720362
0003d0 b0 f3 36 3e bb 56 15 3e 16 e7 3a 3e 51 39 24 3e
       0.17866397 0.14583866 0.18252215 0.1603749
0003e0 52 20 fb 3d dc e0 1f 3e 82 f1 01 3e 24 b2 e0 3d
       0.12262024 0.15613121 0.12689784 0.10971478
0003f0 ed 2b ff 3d b8 f7 05 3e 1b 72 d8 3d 45 22 09 3e
       0.1245955 0.13082778 0.10568639 0.13391979

exp_avg f4 [16]
000000 09 ab 8f bd e9 de 19 bd 09 9e aa 3e fe 9f ee 3d
       -0.07015044 -0.0375661 0.33323696 0.1165161
000010 68 20 0c bd 30 ba fa 3d b0 63 82 3e 98 bd 02 bd
       -0.034210593 0.12242544 0.2546668 -0.031919092
000020 0e 5b 2c 3c d8 9a e8 3c d9 40 41 3d 0d 35 05 be
       0.010519756 0.028394148 0.047180984 -0.13008519
000030 61 b8 95 bd 03 32 df 3b a9 b1 03 3c 0b 72 91 3d
       -0.07310558 0.006811382 0.008037963 0.0710183

exp_avg_sq f4 [16]
000000 b0 13 af 3c 6a 8d 1b 3b cb 9e 41 3d 9b 1c 5e 3d
       0.021371692 0.0023735412 0.047270577 0.0542265
000010 1d 06 02 3e d4 34 61 3d 83 bd a3 3d 60 66 92 3c
       0.12697645 0.05498202 0.07995131 0.017871082
000020 8e a8 9b 3a e8 59 e2 3d a7 da 1c 3c 24 00 6e 3d
       0.0011875795 0.110523045 0.009573615 0.058105603
000030 3d c5 6e 3e 6f b3 03 3d 2c b1 87 3d 2c 21 54 3b
       0.23317428 0.032153543 0.0662559 0.0032368405
